demo_dqn/model/pkl/online_network_0.pkl (torch, 66719 bytes, 6 tensors)

fc1.weight f4 [100, 39]
0	0x3c75e935	0.015009214
1	0x3e0a89db	0.1352915
2	0xbd3d5bf4	-0.04623027
3	0x3d949163	0.07254293
4	0xbb3c352f	-0.0028718223
5	0x3d847797	0.064681225
6	0xbdf63b58	-0.12023038
7	0x3e0c20d9	0.13684405
8	0xbd10c61e	-0.03534519
9	0xbdff1a57	-0.12456196
10	0x3cbce9b8	0.023060665
11	0x3d55e1b8	0.052217215
12	0xbdc0769f	-0.09397625
13	0x3e434796	0.19070277
14	0xbd56c045	-0.052429456
15	0xbddd57c8	-0.108077586
16	0xbd43e7c7	-0.047828462
17	0xbe31b07b	-0.17352478
18	0x3e50f8cf	0.20407413
19	0xbe67e8bf	-0.2264738
20	0xbdae4293	-0.08508792
21	0xbd007a75	-0.031366784
22	0x3d908ed6	0.07058494
23	0x3e2ad9fc	0.16684717
24	0x3b47a57e	0.0030463631
25	0x3d831a8b	0.06401547
26	0xbc82857c	-0.015932791
27	0xbd98a088	-0.07452494
28	0xbc925c3b	-0.017866245
29	0x3d2176f4	0.039420083
30	0xbd9893cd	-0.07450066
31	0x3e00b777	0.12569986
32	0xbdc5e558	-0.096628845
33	0xbc286954	-0.010279018
34	0x3e617dc2	0.22020629
35	0x3d92b69c	0.07163736
36	0xbd5fc228	-0.05462852
37	0x3e23b3e8	0.15986598
38	0xbd87f28a	-0.066380575
39	0xbdeb09d3	-0.11476483
40	0x3e204e25	0.1565481
41	0x3c23e401	0.010003091
42	0xbd8b747e	-0.068093285
43	0x3df4ae05	0.11947254
44	0x3bb251b9	0.005441871
45	0x3dc45811	0.0958711
46	0x3e0aad4a	0.13542667
47	0xbdd6c372	-0.10486497
48	0x3bc40a6d	0.005982688
49	0x3da596ca	0.08085401
50	0x3bcc57ad	0.0062360377
51	0xbe53820d	-0.20655079
52	0x3e37b98f	0.17941879
53	0x3dd0e54d	0.10199986
54	0xbd08b24c	-0.033373162
55	0x3dc2f073	0.09518518
56	0x3e142ea0	0.14470911
57	0xbd4e2632	-0.050329395
58	0xbd717602	-0.05895043
59	0xbdc71efd	-0.097227074
60	0xbd242ea5	-0.040083546
61	0x3d145d43	0.036221754
62	0x3d6c277a	0.057654835
63	0x3db56c34	0.08858529
64	0xb91a793d	-0.00014731749
65	0x3de1138d	0.10990057
66	0xbe2c6171	-0.16834046
67	0x3ccae0da	0.02476542
68	0xbd7bfb07	-0.061518695
69	0x3aa042ae	0.0012226903
70	0x3d11c82a	0.035591282
71	0xbe044ca7	-0.12919866
72	0xbd317b69	-0.043330584
73	0xb90c7ce0	-0.0001339796
74	0x3e91145c	0.28335845
75	0xbd3c9182	-0.046037205
76	0xbcf1d38b	-0.029519817
77	0x3e4a9387	0.1978284
78	0xbdbf1c18	-0.0933153
79	0x3d93ca14	0.07216278
80	0xbd3f8105	-0.046753902
81	0x3cf46de7	0.029837562
82	0x3dcf78f2	0.1013049
83	0x3d16479b	0.036689382
84	0xbd3bed29	-0.04588047
85	0x3d5ebd7d	0.05437993
86	0xbe30bfb2	-0.17260626
87	0x3dc4a6e1	0.09602142
88	0xbd9addfe	-0.07561873
89	0xbe19f0ed	-0.15033312
90	0xbdf871b5	-0.12131063
91	0x3da80205	0.0820351
92	0xbca2acda	-0.019857813
93	0xbd3d34df	-0.046193
94	0xbdb86696	-0.09003942
95	0xbdf0c7eb	-0.11756881
96	0x3e2e4b0b	0.17020814
97	0xbb31896e	-0.002708997
98	0x3dc31ae3	0.095266126
99	0xbe19a8b4	-0.15005761
100	0xbd451ccb	-0.048123162
101	0xbba0dea0	-0.0049093515
102	0x3d882bb3	0.0664896
103	0x3ccaf75a	0.02477615
104	0xbd665858	-0.056236595
105	0x3d87cb70	0.066305995
106	0xbe001fa3	-0.12512068
107	0xbce8160b	-0.028330823
108	0x3c78ee12	0.015193479
109	0xbd24dd18	-0.040249914
110	0x3e06a85f	0.13150166
111	0x3d8774de	0.066140875
112	0xbc87bb77	-0.016568882
113	0x3dea4b58	0.11440152
114	0xbd4a8f88	-0.04945329
115	0xbd1d5c9f	-0.03841841
116	0xbe823357	-0.25429794
117	0x3d973194	0.07382503
118	0x3caa72d8	0.020806715
119	0x3d01a713	0.031653475
120	0x3e1c4e35	0.15264209
121	0x3d0c51e4	0.034257784
122	0x3e4aa855	0.19790776
123	0xbd529d9d	-0.051419843
124	0xbda1f3f2	-0.07907857
125	0x3b8c597f	0.0042831297
126	0xbe0d955b	-0.13826506
127	0x3d69fbcf	0.05712491
128	0x3de4a490	0.111642
129	0x3d9e999a	0.07744141
130	0x3e1c0415	0.15235932
131	0x3c88241b	0.016618779
132	0x3b99113d	0.0046712444
133	0x3e0128fb	0.12613289
134	0x3da90cff	0.08254432
135	0x3ca2e288	0.01988341
136	0xbe227d71	-0.15868165
137	0xbd10c642	-0.035345323
138	0xbc261254	-0.010136206
139	0x3e2269b8	0.15860641
140	0xbe37bc0c	-0.17942828
141	0x3e16452b	0.14674823
142	0x3d38a067	0.045074847
143	0x3dbe4152	0.092898026
144	0xbc5e2715	-0.013559123
145	0xbd50c140	-0.050965548
146	0xbd26b875	-0.040703256
147	0xbe540ce2	-0.2070804
148	0x3e243ed7	0.16039596
149	0x3cee9d33	0.029127693
150	0xbdcbd4b2	-0.09952678
151	0x3d25134b	0.040301602
152	0x3d09cd00	0.03364277
153	0x3d6cfaab	0.057856243
154	0xbe369e3f	-0.17833804
155	0x3e006b48	0.12540925
156	0xbda35987	-0.0797606
157	0x3d9d4464	0.0767906
158	0xbdc4d5e0	-0.09611106
159	0xbe21784e	-0.15768549
160	0x3b6f0332	0.003647041
161	0xbe332733	-0.17495422
162	0x3e5bcbe8	0.21464503
163	0xbe16cf19	-0.14727439
164	0x3ca9bdc0	0.020720363
165	0xbe31a734	-0.17348939
166	0xbd7eaa25	-0.06217398
167	0xbdd33992	-0.10313715
168	0x3d9b2217	0.075748615
169	0x3c70049f	0.014649539
170	0x3d9dd537	0.07706683
171	0x3d6bfb57	0.057612743
172	0x3d37c884	0.04486896
173	0xbddc4f82	-0.107573524
174	0xbd9f3e0a	-0.07775505
175	0xbd5d0d45	-0.053967733
176	0x3ddd21ef	0.10797488
177	0x3d3d4544	0.046208635
178	0x3dc28669	0.09498293
179	0xbe6b747a	-0.22993651
180	0x3e5897f2	0.21151713
181	0xbc380fd3	-0.011234242
182	0xbdf86f50	-0.12130606
183	0x3d3774c4	0.04478909
184	0x3d9cf8d5	0.076646484
185	0xbe069f39	-0.13146676
186	0x3d4388fa	0.047738053
187	0xbe5f902f	-0.21832345
188	0x3d659ba0	0.05605662
189	0x3e552a6a	0.20816961
190	0xbd13ab4a	-0.036052026
191	0x3da996e1	0.08280731
192	0xbe188805	-0.14895637
193	0xbddef585	-0.10886673
194	0x3dd05a18	0.10173434
195	0x3d3202ee	0.043459825
196	0xbd15b3b4	-0.03654833
197	0xbd24bed3	-0.040221047
198	0x3dc057c0	0.09391737
199	0x3cec9b0d	0.028882528
200	0x3e22d194	0.1590026
201	0xbd7632f8	-0.0601072
202	0x3d825a93	0.06364932
203	0xbddf4322	-0.109014764
204	0xbcbf7f8f	-0.023376254
205	0xbdd768d5	-0.10518042
206	0xbdf29a68	-0.11845857
207	0x3c55080f	0.01300241
208	0xbbea3fd7	-0.0071487236
209	0x3d2ccd13	0.04218776
210	0xbccf7b2b	-0.025327286
211	0x3d74f920	0.059807897
212	0xbdb8c741	-0.0902238
213	0xbdfccf22	-0.12344195
214	0x3c87b0b3	0.016563749
215	0xbdc9eb91	-0.09859384
216	0xbb3e94bf	-0.0029080359
217	0xbd5ce7cd	-0.053932
218	0xbd4110bb	-0.047135096
219	0xbdaa33c6	-0.08310656
220	0xbdd2ff70	-0.10302627
221	0x3d013164	0.031541243
222	0xbd9e650f	-0.07734119
223	0xbe6c2f4a	-0.23064914
224	0x3dd35430	0.10318792
225	0xbe184f4f	-0.14874004
226	0x3d56dd7d	0.05245732
227	0x3dc74bb8	0.09731239
228	0x3bddd8ab	0.0067702136
229	0x3b75910b	0.0037470486
230	0xbd2b1eef	-0.041777547
231	0xbdc74edc	-0.09731838
232	0x3dd50bbb	0.10402628
233	0x3cf018cb	0.029308697
234	0x3d40dacf	0.047083672
235	0x3ba3899e	0.0049907705
236	0x3ca9287e	0.020649191
237	0x3d9164f5	0.07099334
238	0x3d1f33e3	0.038867842
239	0x3dee96d2	0.116498604
240	0x3dfda8a7	0.123856835
241	0x3db7aa22	0.08967997
242	0x3d1d980b	0.038475078
243	0x3c2e89f6	0.01065301
244	0xbd869b07	-0.06572538
245	0x3d2eeff0	0.04270929
246	0xbccfbd52	-0.02535883
247	0xbdbf377a	-0.09336753
248	0x3d4a2463	0.049351107
249	0xbd097717	-0.03356084
250	0x3c83b3f0	0.016077012
251	0xbc9fe42e	-0.019517984
252	0xbd9b621b	-0.075870715
253	0xbc8bdd8c	-0.017073415
254	0x3e0b119d	0.13580938
255	0xbd70de12	-0.058805533

fc1.bias f4 [100]
0	0x3dfe4478	0.12415403
1	0xbc66dcb0	-0.014090702
2	0x3e162fc2	0.14666656
3	0x3e0d7568	0.13814318
4	0x3d3b5238	0.045732707
5	0x3d27805c	0.040893897
6	0x3dcfb7c8	0.10142475
7	0xbd7a039a	-0.06103859
8	0x3d3cd4e8	0.04610148
9	0xbdcb4f22	-0.09927203
10	0x3da42122	0.08014132
11	0xbb1fbfc0	-0.0024375767
12	0x3d8ed73c	0.069746464
13	0xbe1e4109	-0.15454496
14	0x3d235b0c	0.03988175
15	0xbd890583	-0.066905044
16	0xbdf429fe	-0.11922072
17	0x3c885938	0.016644105
18	0xbdf8172d	-0.121137954
19	0x3dedf8bc	0.11619708
20	0x3cf06a78	0.029347643
21	0xbe00b2de	-0.12568232
22	0xbdc27068	-0.09494096
23	0xbc8f1620	-0.017466605
24	0xbc9aa340	-0.018876672
25	0xbe0d6314	-0.13807327
26	0x3d69c3ac	0.057071373
27	0x3e1c3caa	0.15257517
28	0x3c25b9e0	0.010115117
29	0x3e0f8476	0.14015374
30	0x3de35240	0.11099672
31	0x3d799c70	0.060940206
32	0x3e156518	0.14589345
33	0xbdca14b8	-0.09867233
34	0xbdf39832	-0.11894263
35	0x3dabc8d8	0.08387917
36	0x3cb96e98	0.022635743
37	0x3de078dc	0.10960552
38	0xbe047de1	-0.12938644
39	0xbe1551db	-0.14582007
40	0x3dd596b8	0.10429138
41	0x3deb784c	0.11497554
42	0xbc8692c8	-0.016427413
43	0x3de0e6ac	0.10981497
44	0xbd993575	-0.07480899
45	0xbdc02cec	-0.09383568
46	0x3e19c4ea	0.15016523
47	0xbd211eda	-0.039336063
48	0x3db1bcdc	0.086786
49	0xbdf0045d	-0.11719582
50	0x3dd40fc8	0.103545725
51	0x3cfaa700	0.03059721
52	0x3d2a6938	0.04160425
53	0xbd461c54	-0.04836686
54	0x3b5a1d40	0.0033281595
55	0x3d15cdfc	0.036573395
56	0xbdb4139a	-0.08792801
57	0xbdb7d74b	-0.08976611
58	0x3cac3d60	0.02102536
59	0x3e122ffa	0.14276114
60	0xbe118aeb	-0.14213149
61	0xbe194cf4	-0.14970762
62	0xbde90c90	-0.11379349
63	0xbc1fc5e0	-0.009751767
64	0x3c8b6970	0.01701805
65	0x3db2e984	0.08735946
66	0x3db84b38	0.08998722
67	0xbdbf05f7	-0.093273096
68	0x3dc747e8	0.09730512
69	0xbda90c58	-0.082543075
70	0xbdad70e2	-0.08468796
71	0xbe1d8340	-0.15382099
72	0x3e0b0b46	0.13578519
73	0x3df33300	0.11874962
74	0xbd577af8	-0.052607507
75	0x3cf329b0	0.029682964
76	0x3cd61c00	0.026136398
77	0x3e125540	0.14290333
78	0x3dda1afc	0.10649678
79	0xbd5e03e8	-0.054202944
80	0xbde6e3cb	-0.11273917
81	0x3dd8c0e8	0.10583669
82	0xbd6737d0	-0.05644971
83	0x3e1c9f3e	0.15295121
84	0x3cff5a70	0.031171054
85	0x3ca72578	0.020403609
86	0xbe0cefb8	-0.1376332
87	0x3e0016d4	0.12508708
88	0xbe097c2d	-0.13426276
89	0xbe133803	-0.14376836
90	0xbe008c20	-0.12553453
91	0xbc8dbf20	-0.01730305
92	0xbda21842	-0.07914783
93	0x3d5b3c00	0.053524017
94	0xbdfb9a02	-0.12285234
95	0x3da08dc6	0.07839541
96	0x3d72f060	0.05931127
97	0x3ab09780	0.0013472885
98	0x3ad3c480	0.0016156584
99	0x3ca81410	0.020517379

fc2.weight f4 [100, 100]
0	0x3d6c0f92	0.057632037
1	0xbcead132	-0.028664205
2	0x3cc6490d	0.024204755
3	0x3e3786aa	0.17922464
4	0x3cf1d373	0.029519772
5	0x3e5b86ba	0.21438113
6	0xbe6991c8	-0.22809517
7	0x3dcf67a2	0.10127188
8	0x3df06bc5	0.117393054
9	0x3d4ec845	0.05048396
10	0xbd8f34ec	-0.06992516
11	0x3dbf3ebf	0.0933814
12	0x3d38336d	0.04497092
13	0x3d81d0dc	0.06338665
14	0x3e1fe2f5	0.15613921
15	0xbdb700e9	-0.089357205
16	0xbe464d63	-0.19365458
17	0xbc68500d	-0.014179242
18	0x3d8e6626	0.06953077
19	0x3d6017d3	0.05471022
20	0x3cf58b35	0.029973606
21	0xbc4887cf	-0.012239411
22	0x3dcd359b	0.1001999
23	0x3e317455	0.17329533
24	0x3d1acc27	0.03779235
25	0xbd3ce45e	-0.046116225
26	0xbdd58cd7	-0.10427254
27	0x3ce241a5	0.027619192
28	0x3ce1988b	0.027538558
29	0x3bbf220f	0.0058329175
30	0xbd9d385b	-0.076767646
31	0xbc99cd1b	-0.01877456
32	0xbd8a4bb3	-0.0675272
33	0xbe76ef9d	-0.24114843
34	0xbd2e4a27	-0.042551186
35	0xbd329d35	-0.043606956
36	0xbd7351ff	-0.05940437
37	0x3d28ef03	0.041243564
38	0xbc8055b7	-0.015665872
39	0xbd72df4d	-0.059294987
40	0x3ca7e869	0.020496564
41	0x3d9491c8	0.07254368
42	0xbc98376a	-0.018581111
43	0xbe6bc972	-0.23026064
44	0x3dc7f943	0.0976434
45	0xbc4e05c3	-0.012574616
46	0x3e1fb0ee	0.15594837
47	0xbd01405d	-0.031555522
48	0xbe27bc21	-0.16380359
49	0xbc7c671f	-0.015405445
50	0xbe3a302b	-0.18182437
51	0xbdd09c30	-0.101860404
52	0x3d20effa	0.03929136
53	0x3e4b1c49	0.19835009
54	0x3dcf1bc7	0.1011272
55	0xbdea4ff7	-0.11441033
56	0x3e3cf2e0	0.18452024
57	0x3e0a128f	0.13483642
58	0x3e2efd6b	0.17088859
59	0x3d023f7a	0.031798817
60	0xbbf6208d	-0.0075112046
61	0x3dfd4352	0.12366356
62	0xbe800713	-0.25005397
63	0xbd583388	-0.05278352
64	0xbdc878e4	-0.09788683
65	0x3d0b46b9	0.034002993
66	0x3e1350bb	0.14386265
67	0xbda35b1f	-0.07976364
68	0xbdb95db2	-0.09051074
69	0xbc3e6e8f	-0.011623039
70	0x3c41b211	0.0118222395
71	0xbe104c49	-0.140916
72	0x3d58d81a	0.052940466
73	0x3d44873a	0.047980525
74	0x3ea59ffe	0.32348627
75	0xbdf4909b	-0.11941644
76	0x3df0db05	0.11760525
77	0xbd7a47e5	-0.06110372
78	0xbe3377c6	-0.17526159
79	0xbe365329	-0.1780516
80	0x3e45a6d7	0.19301926
81	0xbd6a6f1b	-0.057234865
82	0xbd97df1c	-0.074156016
83	0xbe273ddf	-0.16332196
84	0xbd932c63	-0.071862005
85	0xbcb3732f	-0.02190551
86	0xbd5cd057	-0.053909626
87	0x3cc8eaba	0.024525989
88	0xbdc1f6c3	-0.09470894
89	0x3d8b3f17	0.06799143
90	0x3e0b9eab	0.13634746
91	0xbd376fca	-0.044784345
92	0xb9ed695a	-0.00045282656
93	0x3d04b90c	0.032403037
94	0xbdbcdd5f	-0.09221911
95	0xbd94aa00	-0.072589874
96	0xbdc72227	-0.09723311
97	0x3cf30f75	0.029670456
98	0x3e21d343	0.15803246
99	0x3d05127c	0.03248833
100	0xbdc9a887	-0.09846597
101	0x3d489763	0.0489725
102	0x3d624433	0.05524082
103	0xbe5757bb	-0.2102956
104	0xbd84fa7b	-0.06493088
105	0x3d23eae9	0.04001895
106	0xbe277973	-0.16354923
107	0x3e5e47ca	0.21707073
108	0xbc67541f	-0.014119177
109	0x3df425ba	0.11921258
110	0x3d9ce791	0.07661355
111	0x3dc90dcb	0.09817084
112	0xbd7cd40d	-0.061725665
113	0xbd9efe0d	-0.077633
114	0x3e59879b	0.21243136
115	0xbc7ff5dd	-0.015622583
116	0xbe297891	-0.16549899
117	0x3d8b3628	0.06797439
118	0xbcd22160	-0.02565068
119	0x3dddc677	0.1082887
120	0x3ea07e40	0.3134632
121	0x3e3c5f5f	0.18395756
122	0xbdd7c4a8	-0.10535556
123	0xbdac0e43	-0.08401158
124	0xbe556753	-0.20840196
125	0xbd09202b	-0.033477943
126	0xbd9a98a4	-0.07548645
127	0xbd003860	-0.031303763
128	0xbe191f9c	-0.14953464
129	0xbe866752	-0.26250702
130	0x3c219b90	0.009863749
131	0xbd1496ea	-0.036276735
132	0x3e0acee5	0.13555487
133	0xbc72c87a	-0.014818305
134	0xbdd52d25	-0.10409001
135	0xbcb88f26	-0.022529196
136	0x3d783113	0.060593676
137	0xbdc43cb6	-0.09581892
138	0x3c345ebe	0.011008916
139	0x3d07f01c	0.03318797
140	0x3c51c333	0.012802887
141	0xbd155efb	-0.036467534
142	0xbd05501a	-0.032547094
143	0x3d699673	0.057028245
144	0xbe06301e	-0.13104293
145	0x3b4021cf	0.0029317026
146	0xbdf6efef	-0.120574825
147	0xba85a419	-0.0010196
148	0x3e194591	0.14967944
149	0xbe12bba7	-0.14329396
150	0x3e071644	0.13192087
151	0xb796bc7b	-1.7969161e-05
152	0x3e57a98d	0.21060772
153	0xbdc45377	-0.09586232
154	0x3da89898	0.0823223
155	0xbc130c53	-0.008975106
156	0x3e1f16b7	0.15536009
157	0xbb08afa0	-0.0020856634
158	0x3e49f221	0.19721271
159	0x3daae65e	0.0834472
160	0x3cfd30a2	0.030906979
161	0xbe4b88af	-0.1987636
162	0xbe5ca0b0	-0.21545672
163	0x3ded1eda	0.1157815
164	0x3e06d66e	0.13167736
165	0x3db131cc	0.08652076
166	0x3d7968b0	0.060890853
167	0xbd23ca58	-0.039987892
168	0xbdb0f71c	-0.086408824
169	0x3de852ad	0.11343894
170	0xbde13548	-0.10996491
171	0x3be6bf08	0.0070418157
172	0x3da26bf4	0.07930747
173	0x3d39037d	0.045169342
174	0xbe0cbd8a	-0.13744178
175	0xbcfe6885	-0.031055698
176	0xbb9daa23	-0.0048115416
177	0x3dfdd8a7	0.12394839
178	0x3d13afe3	0.03605641
179	0xbdac6b63	-0.0841892
180	0xbd748d27	-0.059704926
181	0x3d623d1b	0.055234056
182	0x3d2e252f	0.04251593
183	0xbdf96eb7	-0.1217932
184	0xbe7d7e88	-0.24755299
185	0xbcc7de53	-0.024398005
186	0xbc18d50a	-0.009328136
187	0xbe195977	-0.14975534
188	0x3d2fa8b8	0.042885512
189	0xbe9a0342	-0.3008061
190	0x3defc907	0.11708265
191	0x3d1d91ec	0.03846924
192	0x3c8f8c85	0.01752306
193	0xbd9af8dc	-0.075669974
194	0x3cc2ad23	0.023764199
195	0x3daff8c7	0.085923724
196	0x3df45c48	0.11931664
197	0xbd0a43c7	-0.033756044
198	0xbca09fa5	-0.019607374
199	0xbc17ea3d	-0.009272155
200	0xbc4a7e5f	-0.012359231
201	0x3de655bd	0.11246822
202	0x3e761e0f	0.24034904
203	0xbd4ab46f	-0.04948848
204	0xbe719fb2	-0.23596075
205	0x3c8a2edd	0.01686805
206	0x3e145ca9	0.14488472
207	0x3dd5182d	0.10405002
208	0xbdaf052f	-0.085459106
209	0xbb46eeb1	-0.0030354674
210	0xbdb67573	-0.089091204
211	0xbd59c163	-0.053162944
212	0xbe219243	-0.1577845
213	0x3e0f63cc	0.14002913
214	0xbc24937b	-0.010044928
215	0x3d36e81b	0.044654947
216	0x3e807b3f	0.2509403
217	0xbc8bcc56	-0.017065208
218	0xbd4c549e	-0.049885385
219	0x3c1b54b4	0.009480644
220	0xbc1ff66b	-0.0097633405
221	0x3ddd193f	0.10795831
222	0xbc3934a3	-0.0113040535
223	0xbd28d23b	-0.041216116
224	0xbdb7f61b	-0.08982488
225	0x3dabdb63	0.08391454
226	0xbd4fc71b	-0.05072699
227	0x3def7c7b	0.11693665
228	0x3cf8a993	0.030354297
229	0xbe0e672b	-0.13906543
230	0xbc61bf65	-0.013778542
231	0x3d2853bd	0.041095484
232	0xbd050973	-0.032479715
233	0xbd98c44b	-0.07459315
234	0x3de1bcda	0.11022349
235	0xbd7b6877	-0.061378922
236	0x3e30645c	0.17225784
237	0xbdd551a5	-0.10415963
238	0xbe0c5c6e	-0.13707134
239	0xbe649a9f	-0.22324608
240	0xbe1b89e8	-0.15189326
241	0x3d3f053f	0.046635862
242	0xbd57b1c0	-0.05265975
243	0x3c0f6d41	0.0087540755
244	0xbc8326bd	-0.016009683
245	0x3e18f67c	0.14937776
246	0xbdf5a50b	-0.1199437
247	0xbda0447f	-0.078255646
248	0xbde50355	-0.11182276
249	0x3d668272	0.056276746
250	0xbd092f84	-0.03349258
251	0xbd9d1d0f	-0.07671558
252	0xbc990043	-0.018676883
253	0xbdc98f2b	-0.0984176
254	0xbd9fa4ef	-0.077951305
255	0xbe23960e	-0.1597521

fc2.bias f4 [100]
0	0xbdc94268	-0.09827119
1	0xbcb8738c	-0.022516035
2	0x39b4e600	0.0003450364
3	0xbd99346e	-0.07480703
4	0xbb94f3b0	-0.0045456514
5	0x3d83022d	0.06396899
6	0x3d85c8f1	0.06532467
7	0xbcb0ae14	-0.021567382
8	0xbc088680	-0.008332849
9	0x3d201d36	0.039090358
10	0x3cec7144	0.028862603
11	0xbdcc92c7	-0.09988933
12	0xbcca3ec8	-0.02468814
13	0xbca952cc	-0.020669363
14	0x3cfffc5c	0.031248264
15	0xbd9e4506	-0.07728009
16	0x3d140832	0.03614063
17	0xbc4f6a68	-0.012659647
18	0x3bd20180	0.00640887
19	0x3c2b8c40	0.01047045
20	0x3da064ad	0.078317024
21	0xbbb2e9d0	-0.0054600015
22	0xbdcc852f	-0.0998634
23	0xbc67ab90	-0.014140025
24	0xbd7c1f57	-0.061553326
25	0x3bb86960	0.005627796
26	0xbcb5a820	-0.022174895
27	0x3bdf47b0	0.0068139657
28	0x3d17a1de	0.037019603
29	0x3cd44f7c	0.025916807
30	0x3d914439	0.070930906
31	0x3ae24780	0.001726374
32	0xbda4df68	-0.08050424
33	0x3ca76e00	0.020438194
34	0x3dbab389	0.09116275
35	0x3d47323a	0.048631884
36	0xbd95aebb	-0.07308718
37	0x3da9983f	0.08280992
38	0xbd8006e0	-0.06251311
39	0xbda02ad8	-0.07820672
40	0xbd820ff6	-0.063507006
41	0xbcca57ec	-0.024700128
42	0xbd62ba0a	-0.055353202
43	0x3db81fa9	0.08990414
44	0xbba8ed30	-0.005155228
45	0xbdac1858	-0.08403081
46	0x3d526372	0.05136437
47	0x3dbc0821	0.09181238
48	0x3d68a90e	0.056801848
49	0x3dc55797	0.09635847
50	0x3da787bb	0.081801854
51	0xbd82521a	-0.06363316
52	0x3c15aa98	0.009134911
53	0xbd903136	-0.07040636
54	0xbd776af0	-0.060404718
55	0x3d724a8e	0.059153132
56	0xbcaf6b58	-0.02141349
57	0xbd09b3d4	-0.033618763
58	0xbd8c68d5	-0.068559326
59	0x3c9359a8	0.017987087
60	0xbb5e39c0	-0.0033908933
61	0x3d1ea632	0.038732715
62	0xbcad29d8	-0.021138117
63	0x3c56cf18	0.013110898
64	0x3d1dd0fe	0.03852939
65	0xbdba95c0	-0.09110594
66	0xbd459143	-0.048234235
67	0xbda2f9fe	-0.079578385
68	0xbdb91cf7	-0.09038728
69	0xbdbf943b	-0.093544446
70	0x3d15d072	0.036575742
71	0x3c8cbdcc	0.017180346
72	0x3c8b1b88	0.016980901
73	0x3d43ff62	0.047850974
74	0xbd1adeda	-0.037810184
75	0xbdb74b8d	-0.08949957
76	0xbdb6fc43	-0.08934834
77	0x3c27a868	0.010233022
78	0x3bcd30a0	0.0062619
79	0x3cc7bea0	0.02438289
80	0xbc62ec50	-0.013850287
81	0x3dc77a33	0.097401045
82	0x3d97e469	0.07416613
83	0xbac44600	-0.0014974475
84	0xbd4cb3f7	-0.049976315
85	0xbd2412ca	-0.04005698
86	0xbd16511a	-0.03669844
87	0xbcbb7fe8	-0.022888139
88	0xbd85bc28	-0.065300286
89	0xbd81774e	-0.06321584
90	0x3d3de422	0.046360143
91	0x3dc81173	0.09768953
92	0x3d2141fa	0.03936956
93	0x3dcbe52f	0.09955823
94	0x3dbc561f	0.09196114
95	0xbad4d800	-0.001623869
96	0x3cd4a704	0.025958546
97	0xbd5884d7	-0.05286106
98	0xbd7eb5e7	-0.062185194
99	0x3d7d5506	0.061848663

fc3.weight f4 [20, 100]
0	0x3d18c015	0.03729256
1	0x3d29feea	0.04150287
2	0xbe1309a8	-0.14359152
3	0xbe4eca4d	-0.20194359
4	0xbd021c57	-0.03176531
5	0xbe0de536	-0.13856968
6	0x3dbd8457	0.092537574
7	0x3d17e379	0.03708217
8	0xbe211d6b	-0.15733878
9	0x3d12b66a	0.035818495
10	0x3cf5fc3f	0.030027507
11	0xbe9984cd	-0.2998413
12	0xbde21830	-0.1103977
13	0x3d59345d	0.053028453
14	0xbd90c6df	-0.07069182
15	0x3d1d8ec7	0.03846624
16	0x3c0241e3	0.007950279
17	0xbd2c94d7	-0.042134132
18	0x3d16d115	0.03682049
19	0x3e376e03	0.1791306
20	0x3de49160	0.111605406
21	0x3dcde9b8	0.10054344
22	0x3ac5d348	0.0015092874
23	0x3dbaa108	0.091127455
24	0x3d5ea648	0.054357797
25	0x3e1a40c7	0.15063773
26	0xbd6c5c3d	-0.057705153
27	0x3d9ee93b	0.07759329
28	0xbdaddca1	-0.08489347
29	0xbe002e76	-0.12517723
30	0xbde246ea	-0.11048682
31	0xbd8fdf03	-0.07024958
32	0xbd9131bc	-0.07089564
33	0xbd092349	-0.033480916
34	0x3d1bacb0	0.038006485
35	0x3d9092a7	0.07059222
36	0xbc0c871a	-0.008577133
37	0xbe0fc1d0	-0.14038777
38	0xbcc269bd	-0.02373206
39	0xbd82f3d0	-0.0639416
40	0xbe02e91b	-0.12784235
41	0x3d204405	0.03912737
42	0xbc2feefb	-0.01073813
43	0xbd9e0a75	-0.07716838
44	0x3d591a90	0.053003848
45	0xbd8af48a	-0.067849234
46	0x3b3e1dc3	0.0029009439
47	0x3d17d932	0.037072368
48	0x3db5022d	0.088383056
49	0x3be5eb83	0.0070166006
50	0xbd841d67	-0.064509206
51	0xbb4f7018	-0.0031652506
52	0x3cf2aeb3	0.029624319
53	0xbba0ea02	-0.0049107084
54	0x3d991fd2	0.07476772
55	0x3d375948	0.04476288
56	0xbc5d8dd7	-0.013522587
57	0x3e4613c8	0.19343483
58	0xbc5e542a	-0.013569871
59	0xbe1f054e	-0.15529367
60	0xbde655c0	-0.11246824
61	0x3dd4ef0a	0.103971556
62	0xbd433fc3	-0.04766823
63	0x3e11388f	0.14181732
64	0xbd37ffdd	-0.044921745
65	0xbd96e17b	-0.07367226
66	0x3e48e757	0.19619499
67	0xbe4a904f	-0.19781612
68	0xbd25cbad	-0.040477443
69	0x3dd46e38	0.10372585
70	0xbd8bc18a	-0.06824024
71	0xbd57b25f	-0.052660342
72	0x3d462f13	0.048384737
73	0xbc4bef08	-0.012447126
74	0xbdd2a475	-0.10285274
75	0x3a9b5d99	0.0011853456
76	0x3c1698ee	0.009191735
77	0xbc13c64e	-0.0090194475
78	0xbd701d7b	-0.058621865
79	0xbb292b30	-0.0025813095
80	0xbb8e5f88	-0.0043448843
81	0x3e3b258b	0.1827604
82	0x3e1843a0	0.14869547
83	0xbda0b1cc	-0.07846412
84	0x3b3e4235	0.0029031162
85	0xbd62e22b	-0.05539147
86	0xb912932d	-0.00013978472
87	0x3ddfedbd	0.10934017
88	0x3e4b18d6	0.19833693
89	0x3dd1f9c0	0.10252714
90	0x3dbfb1c2	0.093600765
91	0xbe0c3876	-0.13693413
92	0x3ca1fcf5	0.01977394
93	0x3c36b61b	0.011151816
94	0x3ddceb88	0.107871115
95	0xbc1dcb1a	-0.009630943
96	0x3e01a5f7	0.12660967
97	0xbd069b37	-0.03286287
98	0xbe116010	-0.14196801
99	0xbe369556	-0.17830405
100	0x3d6d7d5b	0.057980876
101	0x3e02b1c9	0.12763132
102	0x3d0081d8	0.03137383
103	0xbc800c9f	-0.015631018
104	0xbe24c297	-0.16089855
105	0xbe53d083	-0.2068501
106	0x3a352f53	0.0006911654
107	0xbb78ba67	-0.0037952901
108	0x3b330de7	0.002732152
109	0xbc0ecd5a	-0.008715952
110	0xbb3c1adf	-0.002870254
111	0xbdeca717	-0.11555307
112	0x3e274269	0.16333927
113	0x3d98706f	0.0744332
114	0x3d343e48	0.04400471
115	0x3de522cd	0.11188278
116	0xbe311127	-0.172917
117	0xbd61a0f8	-0.055085152
118	0x3b4e8952	0.0031514955
119	0x3e04b9bf	0.12961482
120	0xbe78b663	-0.24288325
121	0xbdd85cea	-0.10564597
122	0x3e48c38a	0.19605842
123	0xbd34fec2	-0.04418827
124	0x3d9990af	0.07498299
125	0xbd194274	-0.03741689
126	0x3deb57f7	0.11491387
127	0x3d664fcf	0.056228455
128	0x3dd56f48	0.10421616
129	0xbdb578f0	-0.088609576
130	0x3d34db3f	0.044154402
131	0xbdec325f	-0.11533045
132	0xbe1f3d97	-0.15550838
133	0x3e26eb93	0.16300802
134	0xbca70b6f	-0.020391194
135	0xbd80e173	-0.06293001
136	0xbdc000c4	-0.09375146
137	0xbd2d387b	-0.042290192
138	0xbe04e682	-0.12978557
139	0x39bdc939	0.00036198812
140	0xbc16d9da	-0.009207213
141	0x3d2b8b83	0.041881096
142	0x3d8d273c	0.06892249
143	0x3d86dbdd	0.06584904
144	0x3c9c7add	0.019101555
145	0xbc62ac72	-0.0138350595
146	0xbdcaf335	-0.09909669
147	0x3d483f66	0.048888586
148	0x3d63693f	0.055520292
149	0xbd6af873	-0.057365846
150	0x3e17785e	0.1479201
151	0xbcf58d28	-0.029974535
152	0x3b5030f5	0.0031767462
153	0xbd0bce6c	-0.034132406
154	0x3e2b90d0	0.1675446
155	0xbd4537f7	-0.048149075
156	0xbd771112	-0.060319014
157	0xbe661f5f	-0.22472905
158	0xbdf3a25f	-0.11896204
159	0x3e2d3bb8	0.16917312
160	0x3de6a958	0.112627685
161	0xbae45d65	-0.0017422853
162	0xbb10446f	-0.0022013446
163	0xbd63af1d	-0.055586923
164	0x3dcc1c2b	0.0996631
165	0xbd0f2f3b	-0.03495715
166	0x3bba8f12	0.005693325
167	0xbdbf30f9	-0.09335513
168	0xbd94a293	-0.07257571
169	0x3e058b81	0.13041498
170	0xbdb6e9e4	-0.0893133
171	0x3da882eb	0.082280956
172	0xbd1e74f0	-0.03868574
173	0x3cd1b41d	0.02559858
174	0xbd258869	-0.040413294
175	0xbd480c52	-0.048839875
176	0xbe769f4d	-0.24084206
177	0xbd9444c7	-0.07239681
178	0xbd53f130	-0.051743686
179	0xbe2027b8	-0.15640152
180	0xbdeee91b	-0.11665555
181	0xbe278eaf	-0.16363023
182	0x3df1a155	0.1179835
183	0x3c3b27e2	0.011423083
184	0xbd4e0b50	-0.050303757
185	0xbdb256cb	-0.08707961
186	0x3e06e6f8	0.13174045
187	0xbd7c06ef	-0.06153005
188	0xbd877684	-0.06614402
189	0xbd119bfb	-0.035549145
190	0xbcd61f83	-0.026138073
191	0x3d68ee85	0.056868095
192	0xbdc136da	-0.0943429
193	0xbdec767a	-0.11546035
194	0xbc780ec7	-0.015140242
195	0x3d5d71bb	0.05406354
196	0x3cdd8738	0.027042016
197	0x3dac7a4e	0.08421765
198	0x3d954e43	0.07290318
199	0xbcecaa32	-0.02888975
200	0xbd66c963	-0.0563444
201	0x3dc30550	0.09522498
202	0xbc958895	-0.018253604
203	0x3db7f8b5	0.08982984
204	0xbd8bc1ad	-0.0682405
205	0x3da2b5fa	0.079448655
206	0x3ded0687	0.115735106
207	0x3cb19773	0.021678662
208	0xbd062b56	-0.032756172
209	0xbe005113	-0.12530927
210	0x3b9bf594	0.0047595
211	0xbd994475	-0.0748376
212	0xbd1d2bad	-0.03837173
213	0xbddc9ee8	-0.107724965
214	0x3e047db0	0.12938571
215	0xbcc91f70	-0.024551123
216	0x3e3684c7	0.17824088
217	0xbd4d496f	-0.05011886
218	0xbdf28ed5	-0.11843649
219	0x3e1b248e	0.15150663
220	0xbc45f8c3	-0.012083235
221	0x3c50c67d	0.012742636
222	0xbd8bdfaf	-0.06829774
223	0xbe0fa27f	-0.14026831
224	0xbd871267	-0.06595307
225	0x3dd0ac8d	0.101891614
226	0x3d8133fb	0.063087426
227	0x3d2b18c9	0.041771684
228	0x3ca67205	0.02031804
229	0x3df08cfb	0.1174564
230	0x3ca9e7a9	0.020740347
231	0x3e110e5f	0.14165638
232	0xbe18990f	-0.14902137
233	0xbe4f7142	-0.20258048
234	0xbd548678	-0.051886052
235	0xbe031342	-0.12800315
236	0x3dc84b36	0.0977997
237	0xbdff6f07	-0.12472349
238	0x3d0a7e7d	0.033812035
239	0xbdac218e	-0.084048375
240	0xbd7a837f	-0.06116056
241	0xbd89672f	-0.06709134
242	0x3ceaa165	0.028641412
243	0xbd234cec	-0.03986828
244	0x3d9a8d45	0.07546476
245	0x3df0f477	0.11765378
246	0x3ddf7e40	0.10912752
247	0x3d2a0c4f	0.041515645
248	0x3db4c913	0.08827414
249	0xbe116f17	-0.14202534
250	0xbdf5f385	-0.12009338
251	0xbcea1aa7	-0.028577162
252	0x3dfdbe82	0.12389852
253	0xbdae1b70	-0.08501327
254	0x3d7bc61a	0.06146822
255	0xbe1801b4	-0.148444

fc3.bias f4 [20]
0	0xbd8c01d5	-0.06836287
1	0xbc8a210c	-0.016861461
2	0xbd2fbdf7	-0.042905774
3	0xbca61ea8	-0.02027829
4	0x3d411c46	0.047146104
5	0xbda2db4b	-0.07951983
6	0xbc061cc0	-0.0081855655
7	0xbdbd4915	-0.09242455
8	0xbd9d8432	-0.0769123
9	0x3d23c2da	0.039980747
10	0xbc449268	-0.011997797
11	0xbd7ef780	-0.062247753
12	0xbd5185c0	-0.051152945
13	0xbdad6cef	-0.08468043
14	0xbd4c2317	-0.04983815
15	0xbbf026b0	-0.0073288307
16	0x3d64217e	0.055696003
17	0x3d9d9a53	0.07695451
18	0xbdc002e2	-0.0937555
19	0xbd332530	-0.043736637
