demo_dqn/best/net8/target_network_best.pkl (torch, 60767 bytes, 6 tensors)

fc1.weight f4 [100, 24]
0	0xbaa4923e	-0.0012555791
1	0xbea7ae3f	-0.32750127
2	0xbe8c402b	-0.27392706
3	0xbd95ed93	-0.07320704
4	0xbd3e34e3	-0.046437155
5	0xbdc5f134	-0.096651465
6	0xbe250750	-0.16116071
7	0xbda04216	-0.07825105
8	0xbd48e7ea	-0.049049295
9	0xbe6abfab	-0.22924678
10	0x3d931b43	0.07182934
11	0xbe14659d	-0.14491887
12	0xbe21c922	-0.15799382
13	0xbc439d7b	-0.011939402
14	0x3ca14e20	0.019690573
15	0xbca6251c	-0.020281367
16	0xbe115816	-0.14193758
17	0x3ea90fce	0.3301987
18	0x3ca6abdb	0.020345619
19	0xbdcef5a2	-0.101054445
20	0x3d6fd837	0.058555808
21	0xbda3b2db	-0.07993098
22	0x3c17b41f	0.009259253
23	0xbe9b2be0	-0.3030691
24	0xbc9038f6	-0.017605286
25	0xbd97cb4d	-0.074118234
26	0xbdd05012	-0.10171522
27	0xbe926cf5	-0.28598753
28	0x3de019db	0.109424315
29	0x3d843277	0.06454938
30	0xbd0fa628	-0.03507057
31	0xbd258f30	-0.040419757
32	0xbdbb1be7	-0.09136181
33	0x3c1e4732	0.009660529
34	0x3be2215f	0.006900951
35	0xbe059252	-0.13044098
36	0x3cc0ce72	0.02353594
37	0xbd8280f2	-0.063722506
38	0xbdad617a	-0.08465858
39	0x3d1bd9b4	0.038049415
40	0x3d9c0932	0.07618941
41	0x3e9cceb3	0.3062645
42	0x3ce249af	0.027623026
43	0xbd2f4a4f	-0.042795476
44	0x3c8cdbfa	0.017194737
45	0x3b2e4938	0.0026593935
46	0xbd1de5dc	-0.03854929
47	0xbc2429cd	-0.010019732
48	0xc0a45612	-5.1355066
49	0xc0bf96b8	-5.9871483
50	0xc0dbdd8e	-6.8707952
51	0x4015853a	2.3362565
52	0x3f0ae4d5	0.5425542
53	0x419b9772	19.448948
54	0xbfdc4617	-1.720889
55	0xbfa3be2b	-1.279241
56	0xbf51df6d	-0.81981546
57	0x3e5fecab	0.21867625
58	0xc07fe42d	-3.9983017
59	0x4067f65f	3.6244123
60	0x3f319c40	0.69379044
61	0xbe0e6b88	-0.13908207
62	0x3ffc6376	1.9717853
63	0xbf6ca2a1	-0.9243565
64	0xc1302c69	-11.010842
65	0xc1fd3c74	-31.654518
66	0x4120e246	10.055243
67	0x40357d24	2.835763
68	0xc118c8f8	-9.549065
69	0xc208f2cc	-34.237106
70	0x3ff394ce	1.9029787
71	0x40c18e88	6.048649
72	0x3d75c732	0.06000442
73	0xbdd8176c	-0.10551342
74	0xbe3a64d1	-0.18202521
75	0x3d92b901	0.07164193
76	0xbd115970	-0.035485685
77	0xbcf921d7	-0.030411644
78	0x3c9e483a	0.01932155
79	0xbbdad950	-0.0066787377
80	0x3d557bf6	0.05212017
81	0xbdf2bad0	-0.11852038
82	0x3dba7b5a	0.09105559
83	0xbde7f543	-0.11326077
84	0x3db597b7	0.08866828
85	0x3d143a4d	0.036188412
86	0xbdb810c8	-0.08987576
87	0xbd882cd6	-0.06649177
88	0x3e06847f	0.13136481
89	0x3dc8bf5c	0.09802124
90	0xbe892ff5	-0.267944
91	0x3da99eb6	0.08282225
92	0xbcf8f1c4	-0.03038872
93	0xbcd101d1	-0.025513561
94	0xbc80076c	-0.015628539
95	0x3c54c316	0.012985965
96	0xbd542eaf	-0.051802333
97	0x3cb7b33d	0.022424335
98	0x3e05216f	0.13001035
99	0x3cbe4863	0.023227876
100	0x3df19e08	0.1179772
101	0x3e71bbd3	0.23606806
102	0xbdb8af32	-0.09017791
103	0xbd4feabb	-0.050760966
104	0x3c46b006	0.012126928
105	0xbc525728	-0.0128381625
106	0x3d3b344e	0.04570418
107	0xbe64abba	-0.22331133
108	0x3d4b4c48	0.049633294
109	0x3c7079ba	0.014677459
110	0xbe691d03	-0.22764973
111	0xbe26d3a5	-0.16291673
112	0xbd44db8f	-0.04806095
113	0xbda3f79f	-0.08006214
114	0x3d2b783d	0.041862715
115	0xbd598b4f	-0.05311137
116	0x3d98b183	0.07455733
117	0x3d681b05	0.056666393
118	0xbdef438a	-0.11682804
119	0xbdaa3449	-0.08310754
120	0xbe8f3cc0	-0.27976036
121	0xbe81c593	-0.2534605
122	0xbe71a2af	-0.23597215
123	0xbdc87166	-0.09787254
124	0xbe9e8e67	-0.3096802
125	0x3db05313	0.08609595
126	0xbe481fb0	-0.19543338
127	0xbe67b416	-0.22627291
128	0xbe916eee	-0.28404945
129	0xbeaebd61	-0.3412886
130	0xbea93bc8	-0.33053422
131	0xbed5cedc	-0.41759384
132	0xbe60aab0	-0.21940112
133	0xbd867be0	-0.06566596
134	0xbe9e79f9	-0.30952433
135	0xbe19535b	-0.14973204
136	0xbe53afb9	-0.20672502
137	0xbd382a54	-0.044962242
138	0xbe51a83b	-0.20474331
139	0xbe2af3c4	-0.16694552
140	0xbe2c2deb	-0.16814391
141	0xbebc3199	-0.3675659
142	0xbe2947ea	-0.1653134
143	0x3de3f98f	0.11131584
144	0xbdbc80af	-0.09204232
145	0xbe52a640	-0.20571232
146	0xbd32ad26	-0.04362216
147	0xbd5ed584	-0.054402843
148	0xbdc1fb92	-0.09471811
149	0xbdefe85b	-0.1171424
150	0xbe18005a	-0.14843884
151	0xbd113ce6	-0.035458468
152	0x3d9b07ad	0.075698234
153	0x3e114f6b	0.14190452
154	0xbd03e7b9	-0.03220341
155	0xbdad8258	-0.08472127
156	0xbb748544	-0.0037310878
157	0xbe614712	-0.21999767
158	0x3d2b5261	0.04182661
159	0x3d9013b7	0.0703501
160	0xbdcda9b7	-0.10042136
161	0xbdbff83d	-0.093735196
162	0xbdae517b	-0.08511635
163	0xbdccd4f7	-0.10001557
164	0xbe386f59	-0.18011226
165	0xbd50af7f	-0.050948616
166	0xbd83949d	-0.0642483
167	0x3c60548a	0.013692031
168	0xbdfe57b8	-0.12419075
169	0xbe468497	-0.19386517
170	0x3dbd7377	0.09250539
171	0xbca9390e	-0.020657089
172	0x3c0f212b	0.008735935
173	0xbd12a6d3	-0.035803627
174	0xbdec4e95	-0.11538426
175	0xbd9112fd	-0.070837
176	0xbe4e21ca	-0.20130077
177	0xbd77335f	-0.060351726
178	0xbbec19ca	-0.0072052227
179	0xbe09857a	-0.13429824
180	0xbd8847d1	-0.06654323
181	0xbdd48820	-0.10377526
182	0xbd3a3199	-0.045457456
183	0xbc86dfa8	-0.01646407
184	0xbd6322fa	-0.055453278
185	0xbdbfd9bb	-0.09367701
186	0x3c393286	0.01130355
187	0xbdf86803	-0.12129214
188	0x3e1222d6	0.14271101
189	0xbe0ba497	-0.13637005
190	0xbd7847ca	-0.06061534
191	0x3ba35d85	0.0049855136
192	0xc0ac121c	-5.3772106
193	0x41089819	8.537133
194	0x3f6544d7	0.89558166
195	0xbcb8569d	-0.022502238
196	0xbdee0fe0	-0.11624122
197	0xc058d029	-3.387705
198	0x3f644a7d	0.8917616
199	0xc0d9ebc6	-6.810031
200	0xbf0d8c59	-0.5529228
201	0x4010232d	2.252147
202	0x4041f1bc	3.0303793
203	0x3f5de994	0.86684537
204	0xbec548f2	-0.38532215
205	0x408f2570	4.47332
206	0x3f03f8e5	0.5155166
207	0xc048c351	-3.1369212
208	0x414aac59	12.667077
209	0xc16708db	-14.439662
210	0xc17d73d1	-15.8407755
211	0xc13b0f18	-11.691185
212	0xc0a5eb58	-5.1849785
213	0xc0d2c53f	-6.586578
214	0xc07464e4	-3.8186579
215	0xc1542e3c	-13.261288
216	0xbcbef6ae	-0.023310985
217	0xbc999d61	-0.018751802
218	0xbc396b8a	-0.011317143
219	0xbda30922	-0.07960726
220	0x3dcce9d7	0.10005539
221	0xbd954871	-0.07289208
222	0xbe852ebf	-0.26012227
223	0x3db20638	0.086925924
224	0x3d59d315	0.05317982
225	0x3c423227	0.011852778
226	0x3d82324f	0.06357252
227	0x3d5e9bd2	0.05434782
228	0xbcd8b39d	-0.026452834
229	0xbd0c8ee6	-0.034315966
230	0x3d46dd73	0.048551034
231	0x3cbd3d0f	0.023100404
232	0x3d5c365b	0.053762775
233	0x3dc2bd64	0.0950878
234	0x3dc77519	0.097391315
235	0xbcbd10a0	-0.023079216
236	0x3bd0503b	0.0063572205
237	0x3bcf0e98	0.0063188784
238	0x3d9e80ad	0.07739387
239	0x3cd47d35	0.02593861
240	0xbbf0301c	-0.007329954
241	0xbe758f2f	-0.23980401
242	0xbe90a0f5	-0.282478
243	0xbe6c0094	-0.23047096
244	0xbdf99472	-0.12186517
245	0xbe952311	-0.29128316
246	0xbd071da3	-0.03298725
247	0xbeb6e77b	-0.3572348
248	0xbe618f87	-0.22027408
249	0xbd3d5ad3	-0.046229195
250	0xbea5771e	-0.32317442
251	0xbe8159d0	-0.25263834
252	0xbe80698c	-0.25080526
253	0xbdb159a5	-0.086596765
254	0xbd8a567a	-0.06754775
255	0xbe48964d	-0.19588585

fc1.bias f4 [100]
0	0x3d903db4	0.07043019
1	0x3d728c1d	0.059215654
2	0x40442e21	3.0653155
3	0xbe18501d	-0.14874311
4	0x3d1bc344	0.038028017
5	0xbdf526bb	-0.11970278
6	0xbe669f70	-0.22521758
7	0xbe2c0b14	-0.16801101
8	0xbe89263e	-0.2678699
9	0xbe3b9c4f	-0.18321346
10	0xbeab306d	-0.33435383
11	0x3caca22e	0.021073427
12	0xc0504cb5	-3.2546818
13	0xbf420e08	-0.7580266
14	0x3faff9e2	1.3748133
15	0x3c80d6f3	0.015727496
16	0x3ce91347	0.028451575
17	0x3b6b25d4	0.0035880702
18	0x3d8bfb14	0.06834999
19	0xbdf6f6a9	-0.120587654
20	0xbe26f417	-0.1630405
21	0xbd82e41e	-0.06391166
22	0xbdf8f44e	-0.121559724
23	0xbe6eaa99	-0.23307265
24	0xc0d2e01c	-6.589857
25	0xbe5861c0	-0.21131039
26	0x3d8551c0	0.06509733
27	0x3d19a032	0.03750629
28	0xbd4edd75	-0.050504167
29	0xbe2d4d7e	-0.16924092
30	0xbdfb1b92	-0.12261118
31	0x3c853a0c	0.01626303
32	0x3e1ca03e	0.15295503
33	0xbcc02797	-0.023456378
34	0xbdef585c	-0.11686775
35	0x3dc849f3	0.0977973
36	0x3e2ea9d6	0.17056975
37	0x3c160ba3	0.009158048
38	0x3d8f9878	0.07011503
39	0xbf37d611	-0.71811014
40	0xbe08f456	-0.13374457
41	0x3c844be6	0.016149472
42	0xbcbacc23	-0.022802418
43	0x3f4806d4	0.7813542
44	0xbe194305	-0.14966972
45	0xc020489a	-2.5044312
46	0xbddd8730	-0.108168006
47	0x3cd97011	0.026542695
48	0xbe37df4a	-0.17956272
49	0xbe8888a5	-0.26666752
50	0x3dc26857	0.094925575
51	0x3dfe20ca	0.12408598
52	0xbe4ad07d	-0.19806094
53	0xbd6c50c8	-0.057694227
54	0xbe418342	-0.18897727
55	0x3dd24c97	0.102685146
56	0x3df4eca8	0.11959201
57	0x3d69eef0	0.057112634
58	0x3eaf74ee	0.34268898
59	0x3d1f261d	0.038854707
60	0x3db8289b	0.0899212
61	0xbdc79ce5	-0.09746722
62	0x3d9ad37c	0.07559869
63	0x3dbec168	0.09314233
64	0xbca6e05a	-0.020370651
65	0xbe310bf6	-0.17289719
66	0x3d9da279	0.07697005
67	0x3ba1a913	0.0049334853
68	0xc0dfb598	-6.990917
69	0xbdbcb930	-0.09215009
70	0xbca87610	-0.02056411
71	0xbe120f4e	-0.14263651
72	0xbe276fb8	-0.16351211
73	0x3c56e4b0	0.013116047
74	0x3d45c20c	0.04828076
75	0x3fc3df6e	1.530256
76	0x3d34c644	0.044134393
77	0x3ba0f620	0.004912153
78	0xbe31beae	-0.17357895
79	0x3e111890	0.14169526
80	0x3e279908	0.1636697
81	0x3f1f8135	0.6230653
82	0x4065b4c7	3.5891588
83	0xbd40ca23	-0.047067773
84	0xbd9e2df5	-0.07723609
85	0xbe4bd331	-0.19904782
86	0x408f37e5	4.475573
87	0xbc17b5b0	-0.009259626
88	0xbe9c7300	-0.30556488
89	0xbdd2ec5a	-0.10298987
90	0x3dd57794	0.10423198
91	0x3ea6375f	0.3246412
92	0x406e9db8	3.7283764
93	0x3d636432	0.055515476
94	0x3d3cade4	0.046064273
95	0xbd40a32c	-0.047030613
96	0xbe2875dc	-0.1645121
97	0x41038eed	8.222394
98	0xbd82f00a	-0.0639344
99	0x4046b562	3.1048207

fc2.weight f4 [100, 100]
0	0x3e1d0b41	0.15336324
1	0x3e1573f1	0.1459501
2	0xbecc99cf	-0.39961097
3	0xba9783f4	-0.0011559711
4	0x3d58f9ba	0.052972533
5	0x3d92b659	0.07163686
6	0xbe69230d	-0.22767277
7	0xbd891a34	-0.06694451
8	0xbf16338f	-0.5867242
9	0x3e27d75f	0.16390751
10	0x3e032d58	0.12810266
11	0x3d926a2e	0.071491584
12	0xbf0941d6	-0.5361608
13	0xbe698cdf	-0.22807644
14	0x3d4fa29d	0.05069219
15	0x3d0ebd22	0.03484834
16	0xbdf40392	-0.119147435
17	0xbd84e280	-0.06488514
18	0xbd22a2f3	-0.03970618
19	0xbd084ff7	-0.033279385
20	0xbd854c8a	-0.06508739
21	0xbc91029d	-0.017701441
22	0x3dac00cb	0.08398589
23	0x3d25cdc9	0.040479455
24	0xbdc905c3	-0.09815552
25	0xbeab86ba	-0.33501226
26	0x3e08a96d	0.13345881
27	0x3df3a198	0.11896056
28	0xbd5b57d7	-0.053550567
29	0x3d1072c8	0.035265714
30	0xbe474e95	-0.1946357
31	0xbe1b445f	-0.151628
32	0xbc1a8d9f	-0.009433179
33	0x3c9428bd	0.018085832
34	0x3d89f62e	0.06736408
35	0xbe18a339	-0.14906015
36	0xbe741c00	-0.23838806
37	0x3e273634	0.1632927
38	0xbbb74a0e	-0.005593545
39	0xbdafa8fe	-0.085771546
40	0x3daf9823	0.0857394
41	0x3c916272	0.017747138
42	0xbd2e070f	-0.0424872
43	0xbeee3355	-0.46523538
44	0xbddcd25f	-0.107823126
45	0xbef40182	-0.476574
46	0x3e037eea	0.12841383
47	0x3c0b788d	0.008512628
48	0xbd55604f	-0.0520938
49	0xbd307ba6	-0.04308667
50	0xbd4fc1e3	-0.050722014
51	0x3dd205a7	0.10254984
52	0xbe0a420c	-0.13501757
53	0x3e2a4f0c	0.16631716
54	0x3e039273	0.12848835
55	0xbdfc2a6b	-0.12312778
56	0x3d407bbf	0.046993013
57	0x3c9e6dd0	0.019339472
58	0xbefa9bfe	-0.48947138
59	0x3d8a1b30	0.06743467
60	0x3e2feb1e	0.17179534
61	0xbdd807a8	-0.10548335
62	0x3e185eb0	0.1487987
63	0x3d3652e3	0.04451264
64	0x3d0fbc3d	0.035091627
65	0x3e23fb4f	0.16013835
66	0xbd16aa8a	-0.036783732
67	0xbcb3b4e2	-0.021936838
68	0xbf07a9fd	-0.52993757
69	0xbe0c6a8c	-0.1371252
70	0xbd0e6509	-0.034764323
71	0x3e1e0846	0.15432844
72	0xbb191bc5	-0.00233625
73	0x3dadb0e7	0.08481007
74	0x3e012cde	0.12614772
75	0xbe46ce61	-0.19414665
76	0x3e4c9c33	0.1998146
77	0x3d240c73	0.040050935
78	0xbbb21284	-0.005434336
79	0x3d4b0f27	0.049574997
80	0xbd382a9b	-0.044962507
81	0xbeecd244	-0.4625417
82	0xbed3c48c	-0.4136089
83	0xbe878c8b	-0.26474413
84	0xbcdbe648	-0.026843205
85	0xbdbd02e7	-0.09229069
86	0xbefcda96	-0.49385518
87	0xbbc669f7	-0.0060551125
88	0xbd178ca6	-0.036999367
89	0x3d8bad63	0.0682018
90	0xbdf34c45	-0.11879782
91	0xbce688ed	-0.028141463
92	0xbe26b1a8	-0.16278708
93	0x3e0bae6f	0.1364076
94	0xbbdbc9f2	-0.0067074234
95	0x3d0ef3d0	0.034900486
96	0x3dac0119	0.08398647
97	0x3d1d7728	0.038443714
98	0xbd5f0268	-0.054445654
99	0xbf3f9c34	-0.7484772
100	0xbdee1abd	-0.11626194
101	0xbe3cf94a	-0.18454471
102	0xbe367896	-0.17819437
103	0xbe0079df	-0.1254649
104	0x3e0b5fa2	0.136107
105	0xbdd7e82d	-0.10542331
106	0xbc56a305	-0.01310039
107	0xbc1a0416	-0.009400388
108	0xbf15e5e7	-0.5855393
109	0x3cd577aa	0.026058037
110	0x3db35a31	0.08757437
111	0x3cef5825	0.029216835
112	0xbf199908	-0.5999913
113	0xbe9cc6d6	-0.3062045
114	0xbfa6b25f	-1.3023185
115	0xbdc76920	-0.09736848
116	0x3da65694	0.08121982
117	0x3d1d7d0f	0.038449343
118	0x3b946705	0.0045288824
119	0xbbde177a	-0.006777701
120	0x3e047ac7	0.12937461
121	0xbd704f30	-0.05866927
122	0x3d409604	0.047018066
123	0x3ca8acff	0.020590303
124	0xbf80b355	-1.0054728
125	0xbf8025c2	-1.0011523
126	0xbd7c445a	-0.061588623
127	0xbd753696	-0.05986651
128	0xbe3892f7	-0.18024813
129	0x3cd61bca	0.026136298
130	0xbd6222b5	-0.05520888
131	0x3befb150	0.0073148385
132	0xbc8aeed9	-0.016959595
133	0x3dc7e710	0.097608685
134	0x3db30a8a	0.087422445
135	0xbe1fce05	-0.15605934
136	0xbd01d4a8	-0.031696945
137	0xbd464e04	-0.048414245
138	0x3d087cf3	0.033322286
139	0xbe2d738a	-0.16938606
140	0xbd474dd3	-0.048658203
141	0x3cbd626f	0.023118226
142	0xbe054dcc	-0.13017958
143	0x3e38cb5e	0.18046328
144	0xbe27263b	-0.16323178
145	0xbf2cf944	-0.6756785
146	0x3e05042c	0.12989873
147	0xbe3752b2	-0.1790264
148	0xbd90b5fc	-0.07065961
149	0xbea28e62	-0.31749254
150	0x3dbaf374	0.09128466
151	0xbe24cfa2	-0.1609483
152	0xbe22663d	-0.15859313
153	0xbd3dfc74	-0.046383336
154	0xbdfb21cc	-0.122623056
155	0xbe424ad8	-0.18973863
156	0xbd4da219	-0.050203416
157	0x3c48d191	0.012256996
158	0xbe8e0194	-0.2773558
159	0x3ccef185	0.02526165
160	0xbd89dbb4	-0.06731358
161	0x3cea3922	0.028591696
162	0xbe08fe07	-0.13378154
163	0xbe30466c	-0.17214364
164	0x3d51a831	0.05118579
165	0xbdad1e96	-0.084530994
166	0xbd36ec0f	-0.044658717
167	0xbc351e2d	-0.011054558
168	0xbf22d27e	-0.63602436
169	0x3da7493a	0.08168264
170	0x3d9d06bc	0.076673
171	0xbd7417f7	-0.059593167
172	0x3c9eaf9b	0.019370845
173	0x3cf3de65	0.029769132
174	0x3dc9a759	0.09846372
175	0xbed2b797	-0.41155693
176	0xbe6f7df3	-0.2338789
177	0x3df0ceb5	0.11758176
178	0x3e3c110f	0.18365882
179	0xbe1a1b82	-0.15049556
180	0x3e82592c	0.25458658
181	0xbb0c6608	-0.002142312
182	0xbf33424f	-0.70023054
183	0xbd91b1f7	-0.07114022
184	0xbdb44051	-0.0880133
185	0xbdac47d1	-0.084121354
186	0x3ba35f76	0.004985745
187	0xbdf2af30	-0.118498206
188	0x3d45d9eb	0.048303526
189	0x3e31036d	0.17286463
190	0xbdd89a70	-0.105763316
191	0xbe3be7cb	-0.18350141
192	0xbdbdafcc	-0.09262046
193	0x3e74ba18	0.23899114
194	0x3e0378e5	0.12839086
195	0x3e029603	0.12752537
196	0x3c8c323f	0.017113803
197	0xbf276bf7	-0.65399116
198	0xbe050f16	-0.12994036
199	0xbf4a8398	-0.79107046
200	0x3e06483b	0.13113491
201	0x3d92f427	0.071754746
202	0xbd97b17d	-0.074069
203	0xbca3520c	-0.019936584
204	0xbe2cea4a	-0.16886249
205	0x3d8f78c5	0.07005457
206	0xbcedae1a	-0.029013682
207	0x3e1b4ffb	0.15167229
208	0xbe2285d7	-0.15871368
209	0xbd35e8a0	-0.0444113
210	0xbd1f53f5	-0.038898427
211	0xbb319b72	-0.002710071
212	0xbdcd9b95	-0.100394405
213	0xbe4804da	-0.195331
214	0xbe068bbd	-0.13139243
215	0xbd78b8b8	-0.060723037
216	0x3e243735	0.16036685
217	0xbe0086e3	-0.12551455
218	0xbdcca0f7	-0.09991639
219	0x3b2da2fc	0.0026494851
220	0x3e6354a2	0.22200254
221	0xbe06868c	-0.13137263
222	0xbca520a4	-0.020157166
223	0x3cdf3597	0.027247233
224	0xbe1e6380	-0.15467644
225	0xbee4707c	-0.4461707
226	0xbc5d617d	-0.013512013
227	0x3cd25648	0.025675908
228	0xbd1545a6	-0.036443375
229	0x3e2ffcd9	0.17186297
230	0x3cfce39a	0.030870248
231	0xbd8611ec	-0.06546387
232	0xbdf22d24	-0.11825016
233	0xbdae3818	-0.08506793
234	0xbc2857db	-0.010274853
235	0xbda8936b	-0.08231243
236	0x39cb3154	0.0003875593
237	0xbe183bae	-0.14866516
238	0xbdc0fc6a	-0.09423144
239	0xbed9c320	-0.4253168
240	0x3d43d863	0.047813784
241	0x3d00d3bd	0.03145193
242	0xbdb5c362	-0.08875157
243	0xbdb1a690	-0.086743474
244	0xbda153c7	-0.078773074
245	0xbda0c2bd	-0.078496434
246	0xbd608048	-0.05480984
247	0xbddae7fb	-0.10688778
248	0x3db50956	0.08839671
249	0xbe0d6033	-0.13806228
250	0xbe25cde6	-0.16191825
251	0xbdbc311c	-0.09189054
252	0x3e88b00a	0.26696807
253	0x3dbe9f63	0.09307744
254	0xbd1dbdc2	-0.038511045
255	0xbd544957	-0.051827755

fc2.bias f4 [100]
0	0xbf4aad02	-0.7917024
1	0xbf89ff2f	-1.0781001
2	0xbec92463	-0.39285573
3	0xbf1f9c28	-0.6234765
4	0xbee0ab4a	-0.43880683
5	0xbf17c978	-0.5929179
6	0xbe8c2731	-0.2737365
7	0xbed99a2d	-0.4250044
8	0xc05d70ef	-3.460018
9	0xbf341345	-0.703419
10	0xbeaba487	-0.33523962
11	0xbf0518e2	-0.51991093
12	0x414a52e7	12.64524
13	0xbebd98f3	-0.37030753
14	0xbfe1ed7a	-1.7650597
15	0xbdcde66d	-0.10053716
16	0xbee7057b	-0.4512137
17	0xbf016be9	-0.5055528
18	0xbef1536b	-0.47133955
19	0xbf2520bc	-0.64503074
20	0x4121da90	10.11586
21	0xbe7419a4	-0.23837906
22	0x3ee80dad	0.45322934
23	0xbe71eb8f	-0.23625015
24	0xc0649c7b	-3.5720508
25	0xbed2960e	-0.41130108
26	0xbeef1e6b	-0.46702895
27	0xbf618db7	-0.88106865
28	0xc15991a7	-13.59806
29	0xbeb33783	-0.3500329
30	0xbe10d9e9	-0.14145626
31	0xbf3921d9	-0.7231727
32	0xbe7d27f0	-0.24722266
33	0x3f8c10a1	1.0942575
34	0xbe7bfb44	-0.24607569
35	0x4094d38f	4.650825
36	0xbee4d8da	-0.44696695
37	0xbea8b39f	-0.3294954
38	0xbeadd54b	-0.33951792
39	0x4062504b	3.5361507
40	0xbffc09e5	-1.969052
41	0xbe9c43e0	-0.30520535
42	0xbf092ebf	-0.53586954
43	0xbee1c034	-0.44091952
44	0xc1018853	-8.095782
45	0xbed6bffc	-0.41943347
46	0xbee8946d	-0.4542574
47	0xbed81bbc	-0.4220866
48	0xbf3a8260	-0.72855186
49	0xbef64c77	-0.48105213
50	0x40da47ee	6.8212805
51	0xbf31ff48	-0.69530153
52	0xbf05f007	-0.5231938
53	0xbed7c268	-0.42140508
54	0xbf2610a3	-0.64869136
55	0x40779862	3.8686757
56	0xbea3ec63	-0.32016286
57	0x402fa8cd	2.7446778
58	0xbec194c3	-0.3780881
59	0xbdb53e28	-0.08849746
60	0xbeb64f89	-0.35607556
61	0xbed2ff75	-0.41210523
62	0x41514b48	13.080879
63	0xbeb8e2a8	-0.36110425
64	0x40c319c0	6.0968933
65	0xbf328e7e	-0.69748676
66	0xbdb7d3e5	-0.089759625
67	0x40978415	4.7348733
68	0xc0c34f2b	-6.103414
69	0xbee534e1	-0.44766906
70	0xbebc809f	-0.3681688
71	0xc07b31d8	-3.9249172
72	0xc0f5c306	-7.6800566
73	0xbeadddeb	-0.33958372
74	0xc0356769	-2.8344367
75	0xbeb4da9e	-0.35323042
76	0xbf1684d2	-0.5879642
77	0xbea7f660	-0.32805157
78	0x3fa7754e	1.3082674
79	0xc0320feb	-2.7822216
80	0x40933b72	4.6010065
81	0xbd213f1a	-0.03936682
82	0x41337828	11.216835
83	0x4055b4cd	3.3391602
84	0xbf0ab1f1	-0.5417777
85	0xbeb476f1	-0.35246995
86	0xbf1041c1	-0.5635033
87	0xbecfb4dc	-0.40567672
88	0xbed5d456	-0.41763562
89	0xbefdb5fb	-0.49552903
90	0x40b0fe76	5.531062
91	0xbedc4de1	-0.43028167
92	0xbeacd4b9	-0.33756045
93	0xbed3e095	-0.4138228
94	0xbeb41917	-0.35175392
95	0xbfe3e036	-1.7802799
96	0xbec1b2c9	-0.37831715
97	0xbffa1ff5	-1.9541003
98	0xbf10f420	-0.56622505
99	0x40d292e0	6.580429

fc3.weight f4 [20, 100]
0	0x3ed1dd70	0.40989256
1	0x3e4ea8ae	0.20181534
2	0x3e5dcb39	0.21659555
3	0x3ed503e6	0.41604537
4	0xbc3484f6	-0.0110180285
5	0xbd88c83d	-0.066788174
6	0xbdcb6537	-0.099314146
7	0xbd4c2b26	-0.049845837
8	0xc0103a4e	-2.2535586
9	0x3c72667a	0.01479494
10	0xbe93e454	-0.28885138
11	0xbebb5f71	-0.36596254
12	0x408ef7b5	4.4677377
13	0x3d767cd8	0.060177654
14	0x3f9ccb25	1.2249495
15	0xbd768650	-0.060186684
16	0x3e8139c2	0.25239378
17	0xbd9650fc	-0.07339665
18	0xbb9589dd	-0.0045635537
19	0x3ef5015d	0.47852603
20	0xc0486bf3	-3.1315887
21	0xbf1f8067	-0.623053
22	0xbf9a4c3f	-1.2054518
23	0xbf86dcd4	-1.0536141
24	0x3bad90a9	0.005296786
25	0x3e2552f3	0.16144924
26	0x3ccf2e12	0.025290523
27	0xbfb5e185	-1.4209448
28	0xbf8f9ab9	-1.1219093
29	0x3edd41b9	0.43214205
30	0xbd37f0d7	-0.044907417
31	0xbcada9f5	-0.021199206
32	0x3d8e29cd	0.069415666
33	0x3ffd9037	1.9809636
34	0xbdcc925b	-0.099888526
35	0x3e808a4f	0.2510552
36	0x3e0814cd	0.13289185
37	0xbd26b2ea	-0.04069797
38	0x3dcdaa99	0.100423045
39	0x3e6cb30f	0.2311518
40	0x3f8b4efc	1.0883479
41	0xbecf6f76	-0.40514725
42	0x3cb70e47	0.022345675
43	0xbe59fcec	-0.21287888
44	0xbf52534f	-0.8215837
45	0x3d255287	0.040361907
46	0x3e32afce	0.17449877
47	0x3eaa8488	0.33304238
48	0x3ea1d0a2	0.31604487
49	0x3f0614b7	0.5237536
50	0x40629fc7	3.541002
51	0xbd94fe33	-0.07275047
52	0xbf1370dc	-0.57594085
53	0xbc80092a	-0.01562937
54	0xbe304048	-0.17212021
55	0xbf79f723	-0.97642726
56	0x3c3a6531	0.011376665
57	0x3fae8762	1.3635066
58	0x3eda9a68	0.42695928
59	0x3e0a4887	0.1350423
60	0x3e7ca987	0.24674045
61	0xbe4b46cd	-0.19851227
62	0xc0bce391	-5.902779
63	0xbdfa9941	-0.12236262
64	0xbf9ed9af	-1.2410182
65	0x3da643ef	0.08118426
66	0xc082e18b	-4.090032
67	0x401651da	2.3487458
68	0x3f8238d5	1.0173594
69	0xbe20287b	-0.15640442
70	0xbd06010c	-0.032715842
71	0x3d0189fe	0.03162574
72	0xbfb7bddf	-1.4354819
73	0x3c6250ea	0.013813237
74	0xbfeba8fb	-1.8410944
75	0xbfbc15cb	-1.4694151
76	0x3d24fdc5	0.040281076
77	0xbd50f43a	-0.051014163
78	0x3e591482	0.2119923
79	0xc0286bef	-2.6315877
80	0x3f97209e	1.1806829
81	0xbdae1832	-0.08500709
82	0xc05a972d	-3.415477
83	0xbcd4e8d1	-0.025989922
84	0x3d97f90c	0.07420549
85	0xbd0eb08f	-0.03483635
86	0xbf0a31c5	-0.5398219
87	0xbd393bcd	-0.045223046
88	0xbd7701dd	-0.06030451
89	0x3c1590e6	0.009128785
90	0xbf5bc05c	-0.8584039
91	0x3e4132f1	0.18867089
92	0xbd171ade	-0.036890857
93	0x3d7ec599	0.062200163
94	0x3de07cf0	0.1096133
95	0x3f2bee9c	0.67160964
96	0x3e0a852b	0.13527362
97	0xc05aaf66	-3.4169555
98	0xbfaaff27	-1.3359116
99	0x3eb61a2b	0.3556684
100	0xbd52da25	-0.05147757
101	0xbe43bed9	-0.19115771
102	0x3e468709	0.1938745
103	0x3eeaf262	0.45888048
104	0xbd4fc03f	-0.05072045
105	0x3d947c39	0.07250256
106	0x3dc8f78f	0.09812843
107	0xbd41a80e	-0.04727941
108	0xbf83d1de	-1.0298421
109	0xbe9e5b36	-0.30928963
110	0xbd926b85	-0.07149414
111	0xbe8afbee	-0.27145332
112	0x409cc9b4	4.899622
113	0x3d1a5121	0.037675027
114	0xbef3602c	-0.4753431
115	0xbe0ccd2b	-0.1375014
116	0x3e609d04	0.21934897
117	0x3ec32f1c	0.3812188
118	0x3df98b63	0.12184789
119	0x3e998d5b	0.29990658
120	0xc01bab71	-2.432339
121	0xbe6a2108	-0.22864163
122	0xbfddfa73	-1.7342056
123	0xbfb7d3ea	-1.4361546
124	0xbfa8f004	-1.3198247
125	0xbca3dcc4	-0.02000273
126	0x3d83cef6	0.06435959
127	0xc0170b49	-2.3600638
128	0xbf7ebba4	-0.99505067
129	0xbdb4dabf	-0.08830785
130	0xbd600d92	-0.05470044
131	0xbd50c0f4	-0.050965264
132	0x3a761f18	0.00093887886
133	0x3f6f2cf5	0.93427974
134	0xbcaeaf4f	-0.021323828
135	0x3ec3a843	0.3821431
136	0x3da8a14a	0.082338884
137	0x3d65bfd7	0.056091156
138	0x3cc5d7a3	0.024150675
139	0x3f955a1c	1.1668124
140	0x3f7feecd	0.99973756
141	0xbe7610bc	-0.24029821
142	0xbe325dc9	-0.17418589
143	0xbd815abb	-0.063161336
144	0xbfaff844	-1.374764
145	0x3ee5c56b	0.4487718
146	0xbd9480d7	-0.07251137
147	0xbe18b1d7	-0.1491159
148	0x3e8d5e33	0.2761093
149	0xbee42f89	-0.44567516
150	0x40698063	3.648461
151	0x3d25c84f	0.040474232
152	0xbddf3636	-0.10899012
153	0xbda7e77b	-0.08198448
154	0xbd88806e	-0.06665121
155	0xbdc6a4f1	-0.09699429
156	0x3cce5e4f	0.025191454
157	0x3fb0847e	1.3790433
158	0x3e1d9eed	0.15392657
159	0xbe68d5cb	-0.22737806
160	0x3cd99338	0.026559457
161	0x3e2ca4df	0.16859768
162	0xc10b8af1	-8.721421
163	0xbe1739c9	-0.14768137
164	0xbfc9f2ce	-1.5777223
165	0x3c8bf369	0.01708384
166	0xbfabdd37	-1.3426884
167	0x3fdb9562	1.7154963
168	0xc00a9c4b	-2.1657894
169	0x3cc56da6	0.024100136
170	0x3ddaa8da	0.10676737
171	0xbf6340c9	-0.8877073
172	0xbfd9a1e7	-1.7002534
173	0xbd2e5738	-0.042563647
174	0xbfb42c96	-1.4076107
175	0xbfc1f0a9	-1.5151569
176	0xbdf11c6e	-0.11773001
177	0x3da27482	0.07932378
178	0xbf31647a	-0.6929394
179	0xbf800559	-1.0001632
180	0x3fdf8f44	1.7465596
181	0x3db825c9	0.08991582
182	0xc01bf657	-2.4369104
183	0xbf4b221f	-0.7934894
184	0xbe4f90fd	-0.20270152
185	0xbd84b7a2	-0.06480338
186	0xbf3c6ed5	-0.73606616
187	0x3e181cb2	0.14854696
188	0xbe012936	-0.12613377
189	0x3e95683a	0.2918108
190	0xbfa5d0d2	-1.2954352
191	0x3d1466dd	0.03623091
192	0x3ddc0ba8	0.10744411
193	0xbe2d0f4a	-0.16900364
194	0x3d5c57bf	0.05379462
195	0xbf9939a1	-1.1970712
196	0x3c8dbd1b	0.017302087
197	0xc029bff7	-2.6523416
198	0xbfe6723d	-1.8003613
199	0x3f41fb4f	0.7577409
200	0xbdc84bf1	-0.0978011
201	0xbf0401ec	-0.5156543
202	0xbdd9beda	-0.10632105
203	0x3da1216e	0.07867704
204	0x3e070069	0.1318375
205	0xbd7b2e0b	-0.061323207
206	0xbd188f7d	-0.037246216
207	0x3e659882	0.22421458
208	0xc0214b71	-2.5202296
209	0xbbaa4cbb	-0.0051971353
210	0xbdcee670	-0.10102546
211	0x3dd072e3	0.10178163
212	0x409a4959	4.8214536
213	0xbd7e220d	-0.062044192
214	0x3e96df11	0.2946706
215	0x3d81bef0	0.063352466
216	0xbce618bb	-0.028087964
217	0xbd256541	-0.040379766
218	0x3e2b710b	0.16742341
219	0x3e3352d4	0.17512065
220	0xc03305ce	-2.7972293
221	0xbf636ca7	-0.88837665
222	0xc03087f2	-2.7582974
223	0xbea5d491	-0.32388738
224	0xbe3dc6ed	-0.18532915
225	0x3e45f0ab	0.19330089
226	0x3dde2a38	0.10847896
227	0xbfc3ea10	-1.5305805
228	0xbf5d2f5c	-0.8640039
229	0xbe9622ff	-0.29323575
230	0xbdd6cab0	-0.10487878
231	0x3c545d53	0.012961703
232	0x3e543263	0.20722346
233	0x3f1d9bea	0.6156603
234	0x3d5d9568	0.054097563
235	0x3f038c83	0.5138628
236	0x3e8df36f	0.27724788
237	0x3d206ce7	0.039166357
238	0x3c36098f	0.011110677
239	0x3fb03230	1.3765316
240	0x3e2b2f37	0.1671723
241	0xbe2424b3	-0.16029625
242	0xbcfd59e4	-0.030926652
243	0xbcf09763	-0.029369062
244	0xbf8eb59b	-1.1149172
245	0xbf0266e6	-0.5093826
246	0xbdfac904	-0.12245372
247	0x3bff9c0b	0.007800584
248	0x3e659f54	0.2242406
249	0xbe5101d1	-0.20410849
250	0x404621f0	3.0958214
251	0x3ea54d67	0.32285616
252	0x3e68ccd8	0.22734392
253	0xbdac889c	-0.08424494
254	0x3eb48ec4	0.35265172
255	0xbfddedac	-1.7338157

fc3.bias f4 [20]
0	0x41817e3c	16.186638
1	0x41480a65	12.502538
2	0x41548231	13.281785
3	0x4154d797	13.302634
4	0x4161b148	14.105782
5	0x414c6e13	12.776874
6	0x415c7385	13.778203
7	0x419058e9	18.043413
8	0x4198a0a6	19.078442
9	0x4178ac20	15.542023
10	0x41a07125	20.055246
11	0x41965d24	18.795479
12	0x4193deca	18.483784
13	0x419e3544	19.776009
14	0x41979f73	18.952856
15	0x418bcd6a	17.4753
16	0x418963be	17.173702
17	0x419d802c	19.687584
18	0x418b8a2b	17.442465
19	0x41bf34e0	23.900818
