demo_dqn/best/net13/target_network_best.pkl (torch, 66719 bytes, 6 tensors)

fc1.weight f4 [100, 39]
00000000: 3abe f93d 7735 d0bd fbd1 153d 8f1a 26be
00000010: b0a3 6bbc dbdd 0fbe 3b40 ba3d 7c59 8b3d
00000020: 045d 0fbd ed36 753d 235d 80bd a204 d63c
00000030: 47ff a33a 07e7 ad3d 6a12 42be fcbc 423d
00000040: 1f09 f13d 07c6 533d 0548 edbd c42d 36bd
00000050: 2734 20bd 8b38 bebd 8d95 93be fb0c 6bbd
00000060: 059f c9bc 0b9b 3f3e 6238 963d 05bf 58bd
00000070: 3383 75bb d204 1fbe 6775 2b3d fd96 85bd
00000080: 361b b43d 65d9 5dbb cbf6 80bd 1686 11bd
00000090: 0f99 9abd 40c1 4f3d afbb 243d 23c9 ecbc
000000a0: 5775 3abd f3d0 df3c 8b48 b73d e710 c0bd
000000b0: b80a 2b3d 1c54 363d a190 103e a30c 2d3d
000000c0: 03e2 d4bb fb32 71bb b2f2 13be abb1 afbd
000000d0: 8538 8b3b ade2 5d3e 9f49 79bd f72a 273d
000000e0: 70db 993d 1742 f8bc 03ed f83b db9f 673d
000000f0: db0d dcbc 03cb aabb 0f16 91bd 5609 9cbd
00000100: 9b53 27bd 080b 743d 8792 6e3d 12ab 7d3d
00000110: 2219 9bbd 1c98 abbd 85a6 883d 1f50 403e
00000120: 7d1a 57bd f370 8abd 23fa 0a3e eb37 273e
00000130: 6261 e6bd 572c 143c 6420 153e e32d 913d
00000140: 6319 1c3e 5996 a83d 3bcf 5cbb c010 263d
00000150: 30cf f83d aec5 123d c7a4 4bbd b1e8 2a3d
00000160: 68e9 503d 6f55 463d 5064 a5be dc96 9f3c
00000170: 70e6 d7bc 1255 7bbe 68ca 243d 5bac 043a
00000180: 0f5f b83e 5a2d 533c c353 11be 81fd 1e3d
00000190: 681a ee3d f6f9 a63d e72d a6bd 4a3e f43d
000001a0: 4c2d b2bc ef7a cf3d 546c 1bbe 27f4 a83c
000001b0: 046f 9ebd 45c8 1a3d a25e d73c e8e9 413c
000001c0: 7fc6 68bd 3db8 b7bd 6569 e03a 13e6 86bd
000001d0: 0faa 8f3d a7f4 6e3a ddc9 8c3c 49ef 25be
000001e0: 2217 26be 9c8d cb3c 9b9d fc3d 3a51 c3bd
000001f0: b7cc 073d 0488 8a3d be7a 28be b2cd 153e
00000200: 533e 44be e533 f73d b015 783d 4693 35bd
00000210: 8d1a 043e 7f3f f33b 13be ec3d fcdd 1c3e
00000220: d34e 9bbd b2ee d6bb 8b97 013e a2ca 15be
00000230: 42fe a93b fb29 8b3d dd0b e8bd a249 ff3c
00000240: d529 02be 8ccd 0cbe 13ec 0b3d 8311 34bd
00000250: 75fd 7ebc 7355 25be cba6 29be cd17 dabd
00000260: 32c5 53be baba 52bc c178 213d 1b7d e93c
00000270: 23c1 bfbd 148c 143e 55e2 5b3e b4fd 953d
00000280: bcd8 843d 06bc 0abe 5de8 a33d 5973 36be
00000290: b679 88bc af8c b7bd 677f 633d a5dd af3d
000002a0: edfc 543e cf15 3a3e 1108 8cbd f32c 543c
000002b0: b7ed 083e 15a2 7c3d e2d4 113e 5324 bcbd
000002c0: 000a 563d 1bd8 aebd 8bce b33d e360 6cbd
000002d0: 8a01 27bb e777 533c 4700 9abd d534 103c
000002e0: 9ebf 8dbd 7580 11bc 37c6 a03d f12e 3b3e
000002f0: 6611 05be e9f5 b93d 92f7 fbbd 1ef8 8c3d
00000300: dda3 513c eda1 e9bc 08a5 273e 7ffc c73d
00000310: b25a 263d cd78 c7bd 7370 a1bd 5b3d efbd
00000320: 5a41 1fbd 33ea eebc 1685 063e 9979 0cbe
00000330: 37a0 323c 720e 81bd 8dcf e93d 4f8e 90bc
00000340: a7e2 8ebd 5793 d73c 3775 b33d 23bc 7ebe
00000350: 0a0f 3dbd bd63 e73d ebc2 9e3d 9712 d23d
00000360: e751 2a3e db49 f7bd 1022 cebd 9d89 563d
00000370: 6f9f 04bd 2e73 003e bf03 10be a466 12be
00000380: a77a b1bc 5f3e 1bbe 0c46 053d fdd3 42bd
00000390: db53 2dbe 63ac 99bd 2fe4 9bbb 1ff6 21be
000003a0: 0896 7d3d eaa5 033e 3d90 6bbc a707 e0bd
000003b0: 20f9 41be 9ebe 243d 2492 98bd 0835 03be
000003c0: c6ec 8ebd 0b9b d83d f2d7 1b3d d103 25bc
000003d0: 5fd7 133d 95e0 0d3d 7ff4 1abe 335a 38be
000003e0: f79b 3d3a dfb2 283d 9054 8dbd 6754 c7bd
000003f0: b468 00be 21a1 133d e723 813e 5c3d 093e
0.12194486 -0.101664476 0.036577206 -0.16221069 -0.014382288 -0.14049475 0.09094282 0.06804177
-0.035000816 0.059866834 -0.062677644 0.026125256 0.0012511992 0.084913306 -0.18952337 0.04754351
0.11769318 0.051702525 -0.11586002 -0.04447724 -0.039112236 -0.092881285 -0.28825036 -0.057385426
-0.02461196 0.18711488 0.07334973 -0.052916545 -0.0037462234 -0.15529183 0.04186001 -0.06522939
0.087942526 -0.00338515 -0.06297072 -0.035528265 -0.07548725 0.050721407 0.04021805 -0.028904503
-0.04552206 0.027321314 0.08949383 -0.09378224 0.04175827 0.044513807 0.14117672 0.04224838
-0.0064966693 -0.0036804068 -0.1444805 -0.08578809 0.004248681 0.21668501 -0.060861226 0.04081246
0.075125575 -0.030304952 0.0075966134 0.056548934 -0.026862076 -0.005212189 -0.070842855 -0.07618968
-0.040851217 0.059580833 0.058245208 0.061930723 -0.07573153 -0.08378622 0.06672386 0.18780564
-0.052515496 -0.067598246 0.13571982 0.16329925 -0.11249043 0.009043775 0.14563137 0.0708883
0.1524406 0.082318015 -0.0033692855 0.040543318 0.12148893 0.035833053 -0.04971769 0.041725818
0.051003844 0.04842132 -0.32303095 0.019481115 -0.026354998 -0.2454417 0.040232092 0.00050610834
0.36010024 0.012889231 -0.14192109 0.03881598 0.1162613 0.08153145 -0.08114224 0.11925943
-0.021750115 0.101308696 -0.15178043 0.020624233 -0.07736018 0.03778865 0.026290242 0.011835553
-0.056829926 -0.089706875 0.0017121254 -0.06586852 0.07014858 0.00091154355 0.0171861 -0.16204561
-0.16219762 0.024847798 0.12334748 -0.09536977 0.033154216 0.06764224 -0.16453072 0.14629248
-0.191644 0.12070445 0.060567558 -0.044329904 0.12900753 0.007423341 0.11559691 0.15319055
-0.07583394 -0.0065592164 0.12655465 -0.1462808 0.0051877806 0.067951165 -0.11330388 0.03116304
-0.1271127 -0.13750285 0.034160685 -0.043962013 -0.015563359 -0.16145878 -0.16567533 -0.10649071
-0.20680693 -0.012861902 0.0394218 0.028502038 -0.0936301 0.1450656 0.21473058 0.07323781
0.06486651 -0.13548288 0.08003304 -0.17817439 -0.016659599 -0.0896238 0.055541422 0.08587197
0.20799609 0.18172382 -0.06837476 0.01295017 0.13371931 0.06167801 0.14241365 -0.09186616
0.05225563 -0.085373126 0.08779629 -0.057709586 -0.0025483095 0.012907005 -0.07519584 0.008801659
-0.06921314 -0.008880724 0.078503065 0.18279625 -0.12994918 0.09080107 -0.1230308 0.06883262
0.012795416 -0.028519595 0.16371548 0.09764957 0.040613838 -0.09739838 -0.07882776 -0.116816245
-0.038880683 -0.02916441 0.13136706 -0.13718261 0.010902456 -0.06301583 0.1141654 -0.017645983
-0.06976824 0.026315374 0.08762591 -0.24876456 -0.04615692 0.112983204 0.077520214 0.10257452
0.16632806 -0.12074634 -0.10065091 0.052377332 -0.03237861 0.12543938 -0.14063929 -0.14296967
-0.02166493 -0.15160511 0.032537505 -0.04756545 -0.1692652 -0.07503583 -0.004757426 -0.15816544
0.06191066 0.1285626 -0.014377651 -0.109389596 -0.1894269 0.04022085 -0.07449749 -0.12813199
-0.06978755 0.10576447 0.03804774 -0.010071711 0.036094066 0.034638006 -0.1513233 -0.18003158
0.00072330184 0.04118621 -0.06900895 -0.09732895 -0.12539941 0.036042336 0.25222704 0.13402313

fc1.bias f4 [100]
00000000: ea8e 873d ed56 08be 2bb5 cabd 1c6a 563d
00000010: 200e 353c 5fda b6bd ae70 803d aca1 e6bd
00000020: e227 44bd 9391 a2bd f41b cdbd dca1 4c3d
00000030: 4a6a 1d3e 945e 033d fc03 1c3d 051d 97bd
00000040: 2a3e a73d c6bc 77bd 4609 083e 3f25 06be
00000050: c809 d93c 0450 f03d c0c2 1f3d b4f4 213e
00000060: fe03 03be 436d f1bd 73af bbbd 7696 0dbe
00000070: c7cb 13be 0019 bfba f8d6 953c 00fb a8ba
00000080: 00ff 3d3c 6038 d23b 7c1f e4bd daad a3bd
00000090: 687e f1bd c5d3 20be 68b2 c3bc 8186 09be
000000a0: e8a9 cc3d 90a0 b13d d1d5 1fbe 28e9 583d
000000b0: 9b84 c3bd c9fc 0bbe 2a8e 003e b4ef 603d
000000c0: 545b fb3d 10be b03c 78df 15be 9ce9 d33d
000000d0: 00f0 78b8 f802 00bd 20a9 0abc febe 073e
000000e0: 6ace 14be e6bc 193e 52c7 013e 37de 07be
000000f0: ff9d 11be 2a27 843d 8052 073e 28cb 01be
00000100: 2c5a c3bd 60b6 8cbc 5ad3 abbd 3c4e d8bd
00000110: e477 2cbd f023 ef3d 393e 20be fd91 c1bd
00000120: 0174 e4bd d060 353d cce2 053d 854f 0fbe
00000130: 727a 203e 3852 f23d 85e0 b5bd 8fe5 22be
00000140: fbf3 e7bd 9457 7f3d 8a78 cabd a8cf a8bc
00000150: 2211 35bd 245f b93d c0e7 833c e0a8 8ebd
00000160: e5b9 0fbe e3d2 aebd 042a 703d ea03 1d3e
00000170: 4ccd 653d 9053 1abc c8a7 1d3e 20df ea3c
00000180: 5a3a 8f3d 971e dfbd 4427 c2bd 807f 8fbb
0.066190556 -0.1331441 -0.09897836 0.052347288 0.011050731 -0.0892837 0.06271492 -0.11261305
-0.047889598 -0.07937922 -0.10015097 0.04995905 0.15372577 0.03207262 0.038089737 -0.07378582
0.08166154 -0.060482763 0.13284788 -0.13100146 0.026493922 0.11734012 0.039004087 0.15816003
-0.12794492 -0.11788418 -0.09164324 -0.13826928 -0.14433204 -0.0014579594 0.018290982 -0.0012892187
0.011596441 0.006415412 -0.11138818 -0.07992144 -0.11791688 -0.15705784 -0.023888782 -0.13430215
0.099933445 0.08673203 -0.15608908 0.05295673 -0.09546777 -0.13670649 0.12554231 0.0549161
0.12273279 0.021575004 -0.14636028 0.10347292 -5.9351325e-05 -0.03125283 -0.008463174 0.13256451
-0.14531866 0.15013465 0.12673691 -0.13268362 -0.14220427 0.064527825 0.13215065 -0.12675154
-0.09538683 -0.017176807 -0.083899215 -0.10561797 -0.042106524 0.116767764 -0.15648736 -0.09451673
-0.111549385 0.04428178 0.032686993 -0.13995178 0.15671709 0.11832088 -0.08880714 -0.15907882
-0.113258325 0.06233938 -0.09886272 -0.02060683 -0.044205792 0.0905135 0.016101718 -0.06965804
-0.14035757 -0.08536317 0.05863382 0.15333524 0.05610399 -0.009419337 0.15396035 0.028670847
0.069935516 -0.108945064 -0.094801456 -0.004379213

fc2.weight f4 [100, 100]
00000000: f6dd a93d d357 e1bb 0bb7 793d 8372 75bc
00000010: 6f7e 81bd 5307 31bc 6308 8dbd 3dc4 773d
00000020: ac09 8a3d 472b e43d 2427 a6be 0cf4 9cbd
00000030: 5487 043e 0e16 9fbd 4c85 033e fbd2 093d
00000040: 97db 13be 27d8 cabd 5b6c 5fbd 2a75 223c
00000050: d97c 813d 13ea a83b 8bc8 063d 5502 9f3d
00000060: 33d4 f63c bf02 4ebd 225f 3cbe 6e7e 8a3d
00000070: b5ef 703d 648f 893e e9ba a0bd 3762 ba3c
00000080: 5f73 59bd 3b80 033d 1bc5 f93d 2bbc c0ba
00000090: a8c3 44bd 6386 a33d 5b9e b2bd d7d1 863d
000000a0: ad46 d33d a7be 023e c2e1 bcbd 2a50 d5bc
000000b0: ca16 65bd e5c2 27bd b2ee 63bb 527a d2bc
000000c0: 441b cb3d 3f62 373e 6dca 9dbd 6b84 8f3b
000000d0: 4e07 1cbe e279 7bbd 6958 0c3e 0223 ecbd
000000e0: 7a07 2bbe 69d7 8b3d cb9d ebbd 5033 0a3e
000000f0: de90 89bd 49f9 943d 2054 75bd ba22 3a3e
00000100: 93f4 b7bc 5928 9abc 13bb d93d c69a 043d
00000110: f79f 01be cec7 84bb 601c 39be b9ce 0d3e
00000120: ef07 ad39 1273 6ebd 7462 93bd d068 f43c
00000130: 46dd 053c 277b 6abc a7c7 66bd b7a8 d73d
00000140: daa3 233e 44d5 3cbe 22cc b23b b0fa e9bc
00000150: a770 8dbd 84cd bb3d d3a9 7c3d 0f65 3b3d
00000160: f805 863d f40b a2ba 9b88 debd a550 fb3c
00000170: ec2f af3d 1f40 933c 570b 583d 250b dbbd
00000180: 43ab 0e3e e354 fc3d 9635 3a3c 552e bcbd
00000190: 4ad6 ac3e 32e1 823c a076 88bd fb0c bebd
000001a0: 507e 333d 2f25 c1bd 3ada 863c b641 473d
000001b0: 1385 d83d fe84 c2bd 4a62 5a3e 31c8 cbbd
000001c0: 0ba7 bcbc 7333 9bbc 46fd 9cbc fc75 a2bd
000001d0: 7f05 f9bc 5f5d 06bd 5b24 253e 2377 f2bd
000001e0: 2fe9 263d 8f9e fe3d fb16 863d 2a7a 06be
000001f0: 029e d63d d8da 9e3c 3bf3 10bd ab09 d2bd
00000200: 88f7 2fbe 1797 e1bd 5775 223d 03dd bd3d
00000210: 7296 43bd 5162 073e cbbb 2d3e 6059 d03d
00000220: 5fa2 643e 0163 823c 7504 ecbd 7f07 8c3d
00000230: 4c64 a93d 4886 2f3d 6a62 a13c 85be e4bc
00000240: e02d 51be 6b80 9bbd 46ad 943c 84ed 81bd
00000250: 7085 0d3c 17ad 423e 807a 0dbe 0f2f a5bd
00000260: c8a6 733d bf30 0b3d 43bc 9e3c 9ba6 c6bd
00000270: b7d7 6e3d 1265 0b3d 1715 523d 601c f53c
00000280: a08d e8bd 4941 a7bd dccd 953c e559 233d
00000290: 8785 cf3d a7bd 07bd 1598 a33d a5a8 583d
000002a0: 341e 96bd ef9b 36bd 4893 91bd 6880 783d
000002b0: b8c7 5abc dfc1 6dbd 971d 513c 50d3 e43d
000002c0: a64a a03d c14c 9ebd d067 243d 7783 a13d
000002d0: a868 59be 8f30 6dbe 275c 653e 7783 433c
000002e0: 0fff 10be ba37 133e 08dd d1bd b9c0 07bb
000002f0: 5d4b a7bd 6368 49bd 5eeb c8bd 7b59 003e
00000300: 406e d7bd 6da9 1fbe 6bde 9ebd 3898 6f3c
00000310: 95b1 793d 9584 0ebe dd46 d43c d7e3 cebd
00000320: 4b29 efbd 7e13 05be d360 f63d 7510 183e
00000330: cdff ed3d c752 2d3e 1758 1b3e 15cc 8abe
00000340: cf87 8ebe b391 403d 39ba 093d 16ce 1a3d
00000350: 404a d13d ab7a 4cbe 1b0b 563d 91cf c0bd
00000360: 91f9 8f3b ffab 123e 5c53 193d e701 0d3e
00000370: d51b e63c d3b4 19bd 3002 47be bcec 0cbc
00000380: f072 953c 0867 eb3d 6fa5 4cbd c55c 2dbd
00000390: 43cd 66bc 1b1b 9a3c 0c83 a4bc 54be 153e
000003a0: 6f4d c43d c36d e43b 23e3 283d a5c8 8f3c
000003b0: 9b61 353e edd9 a73d dafc 6f3c bf24 c43b
000003c0: e76a 923d 6d46 78be 6777 a23a 8a36 85bd
000003d0: 1f80 b43c b2d9 6d3c f020 72bd fd70 0c3e
000003e0: eb04 fe3d 6302 44bd 3212 433c 7863 fdbc
000003f0: 55a3 06be f579 fa3c 31a4 be3d 25a5 fb3d
0.08294289 -0.0068769245 0.06096558 -0.014980915 -0.063229434 -0.010804969 -0.06886365 0.06048988
0.06740126 0.11141067 -0.32451737 -0.07663736 0.12942249 -0.077678785 0.12843817 0.033648472
-0.14439236 -0.09904509 -0.054546695 0.009915629 0.06322641 0.005154857 0.032906096 0.07764117
0.030130481 -0.050295588 -0.18395665 0.06762396 0.058822352 0.2686721 -0.0784815 0.02275191
-0.053088542 0.032104712 0.12195798 -0.0014704516 -0.048038155 0.079846166 -0.0872161 0.065829925
0.10316215 0.1276804 -0.092227474 -0.026039202 -0.055929936 -0.04095735 -0.0034779725 -0.025693092
0.0991731 0.17908572 -0.07704625 0.004379799 -0.15237162 -0.061395533 0.13705601 -0.11530115
-0.16702071 0.068281956 -0.11504706 0.13496137 -0.06717084 0.0727411 -0.05989468 0.1817731
-0.02245549 -0.018818067 0.10631385 0.032374166 -0.12658678 -0.004052139 -0.1807723 0.1384839
0.00033003042 -0.05821521 -0.07196513 0.029835135 0.0081704315 -0.014311588 -0.056342747 0.10530227
0.15980473 -0.1844073 0.0054564634 -0.02856192 -0.06906252 0.09170058 0.061685394 0.045750674
0.06544107 -0.0012363181 -0.10865899 0.030678103 0.08554062 0.017974911 0.05274519 -0.10695485
0.13932519 0.12320878 0.011365315 -0.09188525 0.3375724 0.015976522 -0.06663251 -0.092798196
0.043821633 -0.0943092 0.01646148 0.04864665 0.10572257 -0.094980225 0.21326557 -0.09950293
-0.023028871 -0.018945431 -0.019163739 -0.0793266 -0.030398129 -0.03280389 0.1612715 -0.1183913
0.040749725 0.124325864 0.06547352 -0.1313254 0.10479356 0.019391462 -0.035388213 -0.1025575
-0.1718427 -0.11015146 0.039662685 0.0927067 -0.047750898 0.13221098 0.16966169 0.10173297
0.22327565 0.01591635 -0.115242876 0.06837367 0.08271083 0.04285267 0.019700248 -0.027922878
-0.20427656 -0.07592853 0.01814903 -0.06344131 0.008637771 0.19011341 -0.13816261 -0.08065616
0.059485227 0.033982035 0.01937688 -0.09699746 0.05831119 0.034031935 0.051289644 0.029920757
-0.11355138 -0.08166749 0.018286638 0.039880652 0.1013289 -0.03313985 0.07987992 0.052895207
-0.073299795 -0.044582304 -0.0710817 0.060669333 -0.013353281 -0.058046218 0.012763402 0.11173117
0.07826738 -0.077294834 0.040138066 0.07886403 -0.2123133 -0.23163055 0.22398435 0.011933199
-0.14159797 0.14376727 -0.102472365 -0.0020714237 -0.08168671 -0.049171817 -0.09810518 0.12534134
-0.105190754 -0.15591975 -0.077572666 0.014623694 0.06096037 -0.13917764 0.025912696 -0.10102051
-0.11677798 -0.12995717 0.120301865 0.14850028 0.11621056 0.16926108 0.15170322 -0.27108827
-0.2783799 0.04701395 0.03362486 0.037794195 0.1021924 -0.19968669 0.052256685 -0.0941459
0.0043937643 0.14323424 0.037433013 0.13770257 0.028089443 -0.037525963 -0.19434428 -0.008601364
0.018243283 0.11494261 -0.049962457 -0.0423248 -0.014087024 0.018811753 -0.02008202 0.14623386
0.09585082 0.0069710924 0.04123224 0.01755173 0.17713015 0.08195863 0.014647687 0.005985826
0.07149296 -0.24245615 0.0012395204 -0.06504543 0.02203375 0.014517235 -0.059113443 0.13714977
0.12403282 -0.04785384 0.011906194 -0.03093122 -0.13148244 0.030575732 0.09308661 0.12287358

fc2.bias f4 [100]
00000000: ce46 013d a853 f8bc 58ca 5c3c 95ab 853d
00000010: 4cc6 e13c a020 bd3c b74b 923d 2890 a3bc
00000020: 5b6e a83d 59e3 853d 0c97 80bd 2ff3 a23d
00000030: ed45 80bd fa66 42bd 1859 41bc 8068 b9bb
00000040: 0c06 be3c c059 47bd 74f4 9dbc 131a 9abd
00000050: b03e 81bb fbfa b3bd 4a0f 13bd 86e4 03bd
00000060: 9285 7f3d 2820 20bc aa45 bbbd cd54 27bd
00000070: 745f e03c 6225 173d 0368 6fbd 1027 7abd
00000080: 000c 1c3a a038 03bb 005e bdb9 016b a73d
00000090: a97e 953d 736a 39bd eeef 9abd b44c a53c
000000a0: a61a 023d 8396 b13d b67d 443d e3f5 9a3d
000000b0: 4081 71bb 021c 383d 0e37 763d a946 823d
000000c0: 6683 133d c893 a8bd 688a 16bc 8002 1aba
000000d0: d656 81bd 20f2 07bd 48dd cabd 005b dbbb
000000e0: f05a 95bd ec2b bcbc c792 b33d 9331 b9bd
000000f0: 9236 7f3d a0f3 df3b 9d09 b03d 7a51 9ebd
00000100: e4b8 04bd 0730 b4bd 12d8 5f3d 92f3 283d
00000110: 5099 3e3c 0cec b6bc 5079 68bd b279 1e3d
00000120: 038f 70bd 4913 863d 968b 81bd cc63 d8bc
00000130: de0d 763d cd0d b1bd faf4 213d 0791 cb3d
00000140: 3a53 073d 5604 7f3d e8d5 023c fbfd b03d
00000150: 66e0 223d 8033 d83b 1e22 293d 34d0 ebbc
00000160: a0ae a43b d098 773c 10bb 84bd e827 c3bd
00000170: a0d1 81bc cb37 c7bd 2b99 c33d c5c5 aa3d
00000180: b444 d93c 3ba2 9fbd d981 c63d 2689 793d
0.031561665 -0.030313328 0.013475977 0.06526867 0.027560376 0.023086846 0.07143348 -0.0199662
0.08224174 0.06537504 -0.0627881 0.0795654 -0.06263337 -0.047461487 -0.011801027 -0.0056582093
0.023196243 -0.048669577 -0.019281603 -0.075245045 -0.0039442405 -0.08788105 -0.035903253 -0.03220036
0.062383242 -0.009773292 -0.09144147 -0.040852357 0.027389266 0.036900885 -0.058448803 -0.06107241
0.0005952716 -0.0020022765 -0.00036118925 0.08174706 0.07299549 -0.045267534 -0.07565294 0.020178176
0.031763695 0.08671286 0.04797145 0.075664304 -0.003685072 0.044948585 0.060111098 0.063611336
0.036013983 -0.08231312 -0.009188272 -0.00058750063 -0.06315391 -0.033189893 -0.09905487 -0.0066941977
-0.072927356 -0.022970162 0.0876823 -0.09042659 0.0623079 0.0068344623 0.085955836 -0.07730384
-0.032402888 -0.08798223 0.05464942 0.04124791 0.011633232 -0.022329353 -0.056756318 0.038690276
-0.058730137 0.06546647 -0.06325452 -0.026414774 0.06007182 -0.086452104 0.03954027 0.09939771
0.033038355 0.062259994 0.00798557 0.08642193 0.039764784 0.006597936 0.041292302 -0.028785802
0.0050256997 0.015112117 -0.06480992 -0.09529096 -0.015847027 -0.097274385 0.09550699 0.08338503
0.026522018 -0.07794615 0.09692735 0.06092181

fc3.weight f4 [20, 100]
00000000: ba91 2f3e 5006 67bd cadb 4cbc 179c 113d
00000010: e992 01bd 9fbd 303e 5f44 83bc 9bd8 07be
00000020: c29f f0bd ad97 87bd 55d8 673e 8d40 ba3d
00000030: bd45 bcbd 3d67 50bd 5bdb 9c3d d78e 873c
00000040: 33f2 173e ad3a fcbd f433 903d 3769 093e
00000050: 4fbd 783d d91e 86bc cacc ad3d 83bf e5bd
00000060: fa47 2cbe 8e09 0dbe 77be 27bc a2ce 7d3c
00000070: 1a38 9dbd 3205 20bd 728b 783c 254e 413d
00000080: 109a d4bd 6f3a b0bc 5863 c73d 4b3f 1abe
00000090: e376 813d d3cd 1dbd 6311 a7bd 6a50 96bd
000000a0: 13eb b73d 06bc 02bd 2202 66bc 248d a23d
000000b0: e5e8 543b 251f ac3d 0040 df3c 1dab 5cbe
000000c0: 31de c43d a7e6 ec3c b5dc 723d 2773 34bd
000000d0: db8d ad3d 2b64 06bd dbf8 0b3d cd82 99ba
000000e0: 9fdf 043c 7f52 ad3d 2aee a63d b2df babd
000000f0: 9f7e c5bc f3cc 82bd 5f19 343d 2838 e9bd
00000100: e50b 9abc 7f10 bbbd b3ab 403e 3393 c3bc
00000110: df7a 06bc e1e1 a1bd c42e 99bc ca56 0dbd
00000120: c141 80be dabf 5b3e 0ee0 8bbc e17e 0b3e
00000130: 0de0 57bb 5069 5f3d 0926 abbd 9915 3e3e
00000140: b098 a1bd 52b3 4fbe bf1c 003b 1570 1b3e
00000150: 5fbe d73d 0fc3 9ebd f3b6 c0bc 25c7 b1bd
00000160: dd35 81be 80a3 09be f749 c13c e71d 47bc
00000170: dd3b d83d 886b e9bb 304e 433d a0f6 e1bd
00000180: 3a6b 9abd 7dc2 d13d 2eaa 973c c749 1bbd
00000190: caf7 37bd e018 9bbd bd59 a63d 2865 03be
000001a0: c6f1 063e 2281 e93d 65f7 a4bc a38c 823d
000001b0: cf12 ca3d f238 e03d 63fd 82bd 6ac1 c53d
000001c0: 13fd 5bbc a8a9 4fbd 166a 8fbd 3f2e 0b3e
000001d0: 5c36 94bd d335 7c3b 2428 983d bbd3 bbbc
000001e0: 1f12 64bc 40da 3cbe 03a8 093c 7d5e 813e
000001f0: 3382 b33d 7f8e f3bc 7f3d 12bd f524 713d
00000200: 57d3 c0bc edd2 643e 8f52 be3c 1335 5abe
00000210: bcf5 163e f3f0 593d 6fa4 f8bd 97b9 d83d
00000220: c166 0fbd e8b5 22be 3591 1bbe 924b cebc
00000230: 138b 2c3e 4c81 12be 43a5 2e3d 9dd9 4fbe
00000240: 91d6 29bd 53d7 073e 4101 373d b326 4d3d
00000250: 742b 91bd 5a69 f63d 6780 353e 7efc 1dbe
00000260: 00d1 d2bd 0bd0 61bd f167 993d 0c9d 1dbd
00000270: 5618 b93d 73b0 543d b188 1bbd 5db2 b5bd
00000280: 8e7a 9e3d 632f 8bbb 1201 0bbe d8a5 563d
00000290: 6e54 c9bd da06 b2bd b890 2bbe 43b4 443c
000002a0: 7f12 fd3c 3046 813d 6f5d e33c 3b3d 99be
000002b0: 08a3 0dbe 4b0a 193e f941 353e f228 003c
000002c0: 4b4b b63b e07b 063e 8fbe f73d 2fc0 2dbe
000002d0: a19c 46bd 7b46 9c3d c5a7 6b3d 6723 0e3d
000002e0: 897e 913b 93fa 293e fec2 40be 7ba9 cfbd
000002f0: a068 e73d dbe0 31bd 97e7 18be 9b8c febd
00000300: 9104 29ba bbd5 333c 8f67 4abd 4766 a93d
00000310: d05c a7bc 9f37 e03c 0803 6a3b bc47 05be
00000320: 5f19 be3d 97e3 01bc 5a04 e3bd a695 0c3e
00000330: 5bf9 6a3e e5d8 02be 9770 ccbc d2ff 353d
00000340: 3374 ccbd fbce 12be a2e9 04be 93e3 2d3e
00000350: bae0 4d3d b1d1 89bd f3fa d63c aa91 31be
00000360: c8d4 dd3d 54cb c03d e221 6ebd d4de 033e
00000370: 5272 59bd ee2a ccbd fb45 043e a004 80bd
00000380: c538 fe3a b395 45bd fd25 813d e513 b2bd
00000390: 13cc 29be a25d f5bd 30aa b03d 5733 3fb9
000003a0: 127e 95bd 8032 893b 8f1a 86bd 6a47 643d
000003b0: e749 8b3d a8bc debd 84f0 88bd 2be3 b33d
000003c0: 5f5e 0d3c 50d0 d5bd 258c 0fbe d0c0 453e
000003d0: ff7a 2cbd 420b 7dbe 9dc0 c3bd e2a9 77bd
000003e0: 9d48 e239 30dc babd 2a41 d4bc 2ccb 863e
000003f0: b80b 6f3d 25ea e63c ea75 1f3e 7196 22bd
0.17145434 -0.056402504 -0.012503574 0.03554925 -0.031634245 0.17259835 -0.016023813 -0.13266222
-0.117492214 -0.06620727 0.22641118 0.09094343 -0.09192989 -0.050879706 0.07659026 0.016547604
0.14838485 -0.12315879 0.07041159 0.13419043 0.060727414 -0.016372131 0.08486326 -0.112181686
-0.16824332 -0.13773176 -0.010238281 0.01549116 -0.07676716 -0.039067455 0.015169965 0.047193665
-0.103809476 -0.021512238 0.09735745 -0.15063207 0.06321504 -0.038526367 -0.08157613 -0.073395565
0.08980384 -0.031917594 -0.014038594 0.07937077 0.0032487449 0.08404378 0.027252197 -0.2154965
0.09612692 0.028918577 0.059292514 -0.04405513 0.084743224 -0.03281037 0.034172874 -0.0011711955
0.008109956 0.084630005 0.08150895 -0.09124698 -0.02410823 -0.06386747 0.04396951 -0.11387664
-0.0188045 -0.09134006 0.18815498 -0.023873901 -0.008208006 -0.07904411 -0.018699057 -0.034506597
-0.25050166 0.21459904 -0.017074611 0.13622619 -0.003293994 0.054543793 -0.08356864 0.18562926
-0.07890451 -0.20283249 0.0019548384 0.15179475 0.10534357 -0.07752048 -0.023524737 -0.08680562
-0.25236407 -0.13441277 0.02359484 -0.012153125 0.10558293 -0.0071234144 0.047681987 -0.11033368
-0.07539983 0.10242174 0.018513765 -0.037912156 -0.044914044 -0.07573104 0.08122585 -0.12831557
0.13178167 0.11401583 -0.020137498 0.063744806 0.09866869 0.109483615 -0.06395986 0.096560314
-0.013427037 -0.050698906 -0.07002656 0.1359186 -0.07236931 0.003848423 0.07429531 -0.02292811
-0.013920336 -0.18442631 0.0084018735 0.252674 0.08765068 -0.029731033 -0.03570318 0.058873136
-0.023538275 0.22346087 0.023232726 -0.21309309 0.14742178 0.053208303 -0.12140738 0.105822735
-0.035010103 -0.15889704 -0.15192111 -0.02518252 0.16849928 -0.14307135 0.042638075 -0.20297857
-0.041464392 0.13265733 0.04467893 0.050085735 -0.07088366 0.12031813 0.17724763 -0.1542835
-0.1029377 -0.055130046 0.074905284 -0.03847985 0.09037845 0.051926088 -0.037972156 -0.08871911
0.07738219 -0.0042475923 -0.13574627 0.052404255 -0.09830557 -0.08692713 -0.16754425 0.012005868
0.030892609 0.06312215 0.027754514 -0.29929528 -0.13831723 0.14945333 0.17700948 0.007822262
0.005563175 0.13133192 0.12096893 -0.16967843 -0.048489217 0.076306306 0.057533044 0.03470173
0.004440133 0.16599493 -0.18824384 -0.10139748 0.112992525 -0.04342733 -0.14932095 -0.12429162
-0.0006447519 0.01097625 -0.049415167 0.08271461 -0.020429999 0.027370272 0.0035707373 -0.13015646
0.09282183 -0.007927797 -0.11084814 0.13728961 0.22946684 -0.12778051 -0.02495603 0.044433422
-0.09983101 -0.1433677 -0.12979749 0.16981344 0.050263144 -0.067294486 0.026242709 -0.17340723
0.108316004 0.09413782 -0.058137782 0.12877971 -0.05308754 -0.09969126 0.1291732 -0.06250882
0.0019395581 -0.048238467 0.06306074 -0.08695201 -0.16581754 -0.1198075 0.08626211 -0.00018234305
-0.07299437 0.0041869283 -0.065480344 0.05573217 0.06801205 -0.10875827 -0.066865 0.08783563
0.008628457 -0.10440123 -0.14018305 0.19311833 -0.042109486 -0.24711326 -0.095582224 -0.060464747
0.0004316018 -0.09124029 -0.025909979 0.26326883 0.058360785 0.02818782 0.15572324 -0.039694253

fc3.bias f4 [20]
00000000: d568 c9bd 2aca 5f3d 7522 943d 1fd7 853d
00000010: 852e c43d 446d cf3c cd13 923d 9e9c 023d
00000020: 3a06 773d a062 25bb 2238 82bd a0c1 fa3b
00000030: f3ea ac3d 2e14 4a3d b923 c13d 6e37 423d
00000040: 3430 ffbc 9885 0b3c c5d3 863d 2524 933d
-0.09834448 0.054636158 0.07233135 0.06535172 0.095791854 0.025320657 0.07132683 0.031887643
0.060308672 -0.0025235787 -0.06358363 0.0076524764 0.084432505 0.04933565 0.09430642 0.047416143
-0.031150915 0.008515738 0.065833606 0.071846284
